results/model_states/simple_model.pth (torch, 271612 bytes, 8 tensors)

conv1.weight f4 [32, 3, 3, 3]
0.05577939 0.099448875 0.030623889 0.18396059 0.07718413 -0.07451777 -0.012731493 0.154987
0.037845947 0.16333206 0.07930101 0.114416406 0.008210772 0.07439208 0.14106126 0.107157275
0.014767275 0.18864694 -0.256551 -0.2937073 -0.23401563 0.019491188 -0.22896343 -0.22612429
0.061347578 -0.12931056 -0.2773646 0.008530784 -0.05185308 -0.033537515 0.025294023 0.025160206
0.018095497 -0.1153428 -0.22081852 -0.10370346 0.35846546 0.35291478 0.47517663 0.19364259
0.25856924 -0.15356909 -0.20203924 -0.12582882 -0.055671863 0.36831796 -0.015616884 0.3369814
0.14735179 -0.17878869 -0.2794787 -0.3107319 -0.32855394 -0.34161744 0.23647772 0.061860155
-0.11154 0.065876365 -0.049866065 0.059882004 0.06786042 0.07236466 0.09262702 -0.07054743
0.13939084 0.045804076 -0.10086133 -0.052045345 -0.051310662 0.15064786 0.07285621 0.062479272
-0.29740214 -0.40254852 -0.17563675 -0.1272893 -0.07981502 -0.2021948 -0.17894281 -0.32760242
-0.31979403 -0.29004064 -0.185414 -0.07306888 -0.26755792 0.18439461 0.24240601 -0.045200456
0.058855746 -0.095116995 0.07213556 -0.13752694 0.35088947 0.053545117 0.44219452 0.5488301
0.30574095 0.17623487 -0.011743803 -0.56281507 -0.23085655 0.251018 -0.5317678 0.10052491
0.39472157 0.1064941 -0.093674764 -0.45246807 -0.07914704 -0.1403684 -0.11000584 -0.011693395
-0.18115614 0.15275219 -0.03681032 -0.11261786 -0.13185522 0.026576458 -0.0290661 0.004733593
0.17137937 0.06867569 0.1672611 -0.08250593 -0.18727995 0.14679974 0.018944986 0.1654536
0.13694938 -0.13229562 0.16249028 -0.05355397 0.02438021 -0.021058412 -0.13726369 -0.21512641
-0.20164675 -0.26189196 -0.31745413 -0.074981056 -0.15546611 -0.19395211 -0.2836722 -0.36740503
0.38365412 0.4069506 -0.06431749 0.030982783 -0.07072864 -0.22259068 -0.33954638 0.083516054
-0.40655172 0.64700764 0.63210857 0.45101008 0.3808842 0.23252217 0.04781027 -0.062288497
0.22257808 -0.47033647 0.013294358 0.04664908 0.22519405 -0.012879717 -0.22361614 -0.10775388
0.0014731995 0.10852057 -0.22572078 -0.1129077 0.12532546 0.37891585 -0.08513264 0.17620556
0.3840886 -0.1744042 -0.17074873 -0.12384958 -0.012842879 -0.09373171 0.4721733 -0.17581068
-0.20166068 0.27818102 -0.33815438 0.059029102 -0.23552482 -0.09996422 -0.066632144 0.20856011
-0.15962225 0.21561645 0.21112883 0.26508108 0.10308926 0.029908692 0.06098664 -0.097675875
-0.015186262 0.07220129 0.17107745 0.12187995 0.14192282 0.13359013 0.2774562 -0.3105928
-0.1364215 -0.18038492 -0.17514445 0.079268694 -0.09421693 -0.14535242 -0.024638418 0.075196855
-0.043398425 0.11218497 -0.18033972 0.08093859 0.13140154 -0.13203041 0.05453521 0.026831836
-0.18462163 0.04596572 -0.0049657426 -0.041057356 0.29675725 0.31171417 -0.03204836 0.36768338
0.2572535 0.34166157 -0.37137085 -0.32619476 -0.15013596 -0.11707252 -0.2417214 -0.07170056
0.18449847 0.017943708 -0.108248405 -0.082377926 -0.10587519 -0.00952298 -0.13580886 -0.11817568
-0.009988676 0.09437408 -0.032287303 0.017961344 -0.18179932 -0.03754128 -0.078600794 0.1048472
00000000: ee78 643d daab cb3d f3de fa3c 2a60 3c3e
00000010: b712 9e3d c69c 98bd c197 50bc eab4 1e3e
00000020: 5a04 1b3d 8540 273e 9168 a23d 2653 ea3d
00000030: 7986 063c e05a 983d 5d72 103e 4675 db3d
00000040: 71f2 713c aa2c 413e a75a 83be ce60 96be
00000050: cba1 6fbe fcab 9f3c 6475 6abe 208d 67be
00000060: 9947 7b3d fd69 04be bc02 8ebe b4c4 0b3c
00000070: e563 54bd a25e 09bd 6935 cf3c c71c ce3c
00000080: 023d 943c d938 ecbd 401e 62be 7b62 d4bd
00000090: c988 b73e 3fb1 b43e 5a4a f33e 3e4a 463e
000000a0: 3063 843e 3741 1dbe 60e3 4ebe 45d9 00be
000000b0: 2e08 64bd 2c94 bc3e f6dd 7fbc d388 ac3e
000000c0: 63e3 163e 6214 37be d517 8fbe 4018 9fbe
000000d0: 3938 a8be 7be8 aebe 3727 723e 1361 7d3d
000000e0: 156f e4bd 30ea 863d 5c40 4cbd d546 753d
000000f0: 67fa 8a3d ec33 943d 3cb3 bd3d 2c7b 90bd
00000100: 79bc 0e3e 0e9d 3b3d 6390 cebd 802d 55bd
00000110: 212b 52bd 6f43 1a3e a335 953d 44ea 7f3d
00000120: 1845 98be d71a cebe 1fda 33be 2058 02be
00000130: 0f76 a3bd 270c 4fbe c93c 37be 81bb a7be
00000140: 0bbc a3be 3580 94be 2bdd 3dbe 23a5 95bd
00000150: 5afd 88be f1d1 3c3e 4839 783e 1d24 39bd
00000160: b912 713d b3cc c2bd cfbb 933d ddd3 0cbe
00000170: c9a7 b33e 2052 5b3d 5267 e23e 2180 0c3f
00000180: 148a 9c3e ea76 343e 1469 40bc a614 10bf
00000190: a965 6cbe 6e85 803e ef21 08bf 01e0 cd3d
000001a0: f218 ca3e 9419 da3d 8ed8 bfbd e5a9 e7be
000001b0: d817 a2bd bcbc 0fbe be4a e1bd a795 3fbc
000001c0: ff80 39be 126b 1c3e 6bc6 16bd 31a4 e6bd
000001d0: 0e05 07be dfb6 d93c 081c eebc 421c 9b3b
000001e0: 137e 2f3e d7a5 8c3d 7e46 2b3e def8 a8bd
000001f0: 51c6 3fbe ac52 163e 8432 9b3c ab6c 293e
00000200: 753c 0c3e 8178 07be da63 263e 685b 5bbd
00000210: 02b9 c73c b182 acbc da8e 0cbe 194a 5cbe
00000220: 7c7c 4ebe b416 86be 5989 a2be ab8f 99bd
00000230: 8232 1fbe 629b 46be 7c3d 91be 831c bcbe
00000240: 506e c43e d45b d03e e3b8 83bd 9bcf fd3c
00000250: 2dda 90bd d0ee 63be 06d9 adbe 770a ab3d
00000260: 8c27 d0be 4ba2 253f ded1 213f cbea e63e
00000270: 4103 c33e 4b1a 6e3e b4d4 433d 3922 7fbd
00000280: 82eb 633e f1cf f0be 94d0 593c 1b13 3f3d
00000290: 4599 663e 7305 53bc a1fb 64be 11ae dcbd
000002a0: 5f18 c13a 0840 de3d 5923 67be 273c e7bd
000002b0: 5155 003e 4201 c23e 065a aebd 3b6f 343e
000002c0: 43a7 c43e 0497 32be c1d8 2ebe d9a4 fdbd
000002d0: f06a 52bc 69f6 bfbd b3c0 f13e b707 34be
000002e0: 2380 4ebe be6d 8e3e 9222 adbe 80c8 713d
000002f0: 6b2d 71be 0aba ccbd 6f76 88bd c890 553e
00000300: 0474 23be 8fca 5c3e 2832 583e b5b8 873e
00000310: 7620 d33d 1303 f53c 21cd 793d 4a0a c8bd
00000320: cdcf 78bc 45de 933d ed2e 2f3e 329c f93d
00000330: 3754 113e dacb 083e bd0e 8e3e 0506 9fbe
00000340: 14b2 0bbe d3b6 38be 1159 33be a057 a23d
00000350: cef4 c0bd 44d7 14be 82d6 c9bc cf00 9a3d
00000360: 8cc2 31bd 3cc1 e53d faaa 38be 22c3 a53d
00000370: 208e 063e fb32 07be 5060 5f3d 70ce db3c
00000380: 740d 3dbe 8d46 3c3d abb7 a2bb c22b 28bd
00000390: 91f0 973e 0099 9f3e 2445 03bd ff40 bc3e
000003a0: bbb6 833e 44ee ae3e 5224 bebe 0003 a7be
000003b0: 3ebd 19be b8c3 efbd d185 77be bed7 92bd
000003c0: 2bed 3c3e affe 923c 57b1 ddbd c2b5 a8bd
000003d0: 17d5 d8bd 4606 1cbc 7a11 0bbe 1706 f2bd
000003e0: 8ba7 23bc 3347 c13d b13f 04bd ab23 933c
000003f0: 9a29 3abe e3c4 19bd 74f9 a0bd 21ba d63d

conv1.bias f4 [32]
-0.09268184 0.27383268 -0.35759628 0.4220197 -0.17885572 0.80876654 0.08842797 -0.14329922
0.19451684 0.005630859 -0.64038914 -0.4086382 0.23491469 -0.5027742 -0.46362042 -0.16054061
-0.16511697 0.20049234 -0.22932921 0.008760359 0.1809133 -0.13812092 -0.5303276 -0.6474291
-0.4211226 -0.45472014 -0.7298178 0.4099199 0.22149281 -0.16731349 -0.13178375 -0.5252787
00000000: facf bdbd cc33 8c3e dc16 b7be f712 d83e
00000010: f425 37be 530b 4f3f b919 b53d 08bd 12be
00000020: 6c2f 473e 1283 b83b 8bf0 23bf 0739 d1be
00000030: 7a8d 703e cfb5 00bf a85f edbe c264 24be
00000040: 6c14 29be dd4d 4d3e 47d5 6abe 9c87 0f3c
00000050: 5641 393e 926f 0dbe 8dc3 07bf eabd 25bf
00000060: 629d d7be 14d1 e8be 57d5 3abf 05e1 d13e
00000070: 03cf 623e 3a54 2bbe 52f2 06be aa78 06bf

conv2.weight f4 [64, 32, 3, 3]
-0.053674866 -0.011874451 0.033955712 -0.019478997 -0.019071558 -0.036280736 -0.07976071 -0.046711076
-0.03949936 0.02217348 -0.014917102 -0.04671967 0.026554175 -0.02141549 -0.083556436 -0.053539313
-0.045781538 0.011514327 0.00876554 0.028546259 0.04518814 -0.06651784 -0.0013602163 -0.0065022944
-0.10603373 -0.01561401 0.0024822226 -0.018530183 -0.047311425 -0.017850634 0.038397692 0.025998741
-0.03494737 0.05584455 0.047916602 -0.0143141765 0.0028224492 -0.015917743 0.022974877 0.029439263
0.007904663 0.0018914321 -0.0450597 0.049408406 -0.029673725 0.08256845 0.12226262 0.012787815
0.13265786 0.045420554 0.08304375 0.009125817 0.05737447 0.023074575 -0.019646013 -0.04720772
0.026259234 -0.073720306 -0.017900908 -0.0018051708 -0.046463437 -0.07870259 -0.039591067 -0.05184878
-0.03520587 -0.06061237 -0.035769925 -0.102640875 0.008967931 -0.03439808 -0.041236177 -0.0017142307
-0.007874962 -0.04270037 -0.03587225 -0.07770624 0.019971754 -0.05330633 0.021289807 -0.068208456
-0.083494276 0.074408635 0.09102104 0.010578329 0.03942626 0.08573603 -0.0016613901 0.066439755
0.07580192 -0.0077182106 0.046915945 0.036479846 0.03176849 -0.06744739 0.03976534 0.032230396
-0.0011382307 0.024140079 0.013191552 -0.017941047 -0.032833006 -0.07774794 -0.061444636 -0.06483672
-0.008759319 -0.05387999 -0.09262018 -0.034138985 0.012734188 -0.068844974 0.05189633 0.0042894725
-0.0026506274 -0.0029054938 -0.074933484 0.034977224 -0.022728376 -0.03347306 -0.07807491 -0.005201288
-0.09385827 -0.11134262 -0.08404974 -0.081101045 7.278616e-05 0.004227742 0.01465094 0.017685303
-0.0682655 -0.05723195 -0.03735411 -0.016800623 -0.05035558 -0.08993164 -0.08681298 0.019067684
-0.0067719426 0.012456781 -0.001112103 0.030766536 -0.009504694 0.04308221 -0.023798037 0.0422245
0.008049933 0.04144425 -0.04063512 0.045259696 -0.021276083 -0.04360128 0.016579647 -0.00094756583
-0.056437667 -0.003823273 0.04554541 0.020671507 -0.021992235 0.008489715 -0.026716832 0.043397337
0.045053914 -0.047049467 0.03662585 -0.04955334 -0.043317914 -0.05332991 0.012465897 0.042859375
0.0064331996 -0.022106895 -0.058755837 -0.0014107312 -0.013779619 -0.017154256 -0.043501772 -0.06199439
-0.042036124 0.016982274 -0.0052783224 -0.021860804 0.038844522 0.018825296 0.03319912 -0.034982797
-0.008806701 0.047902454 -0.031515095 -0.011904947 0.055696514 -0.047085736 -0.071537875 -0.03945807
-0.031001775 0.0064661456 -0.089221455 0.0030984562 -0.032491002 -0.06407784 0.075478494 0.17261676
0.16747145 0.028522272 0.038248193 0.06905169 -0.10402249 0.005649719 -0.018914333 -0.035395067
-0.03756439 -0.0134249525 -0.031077355 -0.03198051 -0.07649169 -0.07947631 0.0076957224 0.027812798
0.017761216 0.046368465 0.029204847 -0.071722016 0.013061941 0.03147139 0.012387251 0.018197231
-0.018917654 -0.06643333 0.00877094 -0.00027348395 -0.06254801 -0.06423834 -0.074187204 -0.11299843
-0.1096648 -0.06878984 -0.01293968 0.02961838 0.03869483 -0.023007283 -0.0071038525 0.0835994
-0.08638518 0.015133708 -0.0422603 -0.074722216 -0.08819018 -0.07444067 -0.0009654327 -0.005779986
-0.078498065 -0.034469962 -0.025660383 -0.087682 -0.027204169 -0.08945128 0.004258633 -0.10497412
00000000: 2dda 5bbd 0f8d 42bc 2515 0b3d 6b92 9fbc
00000010: f53b 9cbc 1c9b 14bd 9559 a3bd 1d54 3fbd
00000020: 15ca 21bd 28a5 b53c dc66 74bc 205d 3fbd
00000030: 2488 d93c 8a6f afbc a31f abbd 0a4c 5bbd
00000040: 6c85 3bbd 96a6 3c3c 579d 0f3c d8d9 e93c
00000050: 3317 393d 813a 88bd 4949 b2ba 3311 d5bb
00000060: 3628 d9bd e8d1 7fbc c9ac 223b 9ccc 97bc
00000070: a0c9 41bd 7e3b 92bc e646 1d3d 50fb d43c
00000080: f924 0fbd 41bd 643d 3344 443d 0286 6abc
00000090: d7f8 383b ed65 82bc cf35 bc3c 9c2a f13c
000000a0: 8f82 013c eee9 f73a 8590 38bd 7860 4a3d
000000b0: 5016 f3bc a619 a93d d364 fa3d fc83 513c
000000c0: 76d7 073e e70a 3a3d d712 aa3d 7384 153c
000000d0: 7e01 6b3d e406 bd3c adf0 a0bc e25c 41bd
000000e0: 9b1d d73c acfa 96bd eda4 92bc 7b9b ecba
000000f0: 7250 3ebd d32e a1bd 3e2a 22bd 635f 54bd
00000100: 0834 10bd ad44 78bd 7c83 12bd 6135 d2bd
00000110: 3bee 123c 00e5 0cbd 44e7 28bd 0ab0 e0ba
00000120: fc05 01bc 95e6 2ebd c8ee 12bd 7324 9fbd
00000130: ce9b a33c bd57 5abd f667 ae3c e0b0 8bbd
00000140: 0cff aabd 8e63 983d 3d69 ba3d ba50 2d3c
00000150: 6e7d 213d 5f96 af3d 00c3 d9ba 9111 883d
00000160: 093e 9b3d 0be9 fcbb ef2a 403d e46b 153d
00000170: ad1f 023d db21 8abd fbe0 223d 0504 043d
00000180: af30 95ba 6ac1 c53c 6121 583c 1af9 92bc
00000190: e77b 06bd 503a 9fbd 5fad 7bbd 1dc9 84bd
000001a0: 3f83 0fbc 44b1 5cbd a6af bdbd 52d5 0bbd
000001b0: 0ea3 503c 98fe 8cbd 3f91 543d b48e 8c3b
000001c0: 26b6 2dbb 196a 3ebb ba76 99bd 4744 0f3d
000001d0: dc30 babc 0c1b 09bd bde5 9fbd 916f aabb
000001e0: c438 c0bd 9907 e4bd 4522 acbd 4e18 a6bd
000001f0: c6a4 9838 df88 8a3b 7f0a 703c c5e0 903c
00000200: c8ce 8bbd 0d6c 6abd a000 19bd 76a1 89bc
00000210: a741 4ebd 142e b8bd 01cb b1bd d533 9c3c
00000220: 2ce7 ddbb 8717 4c3c fcc3 91ba 1a0a fc3c
00000230: 93b9 1bbc f976 303d 1af4 c2bc 99f3 2c3d
00000240: dee3 033c 72c1 293d 0371 26bd 3b62 393d
00000250: 2e4b aebc 4197 32bd 0ad2 873c 1166 78ba
00000260: 2f2b 67bd e08f 7abb d38d 3a3d 4b57 a93c
00000270: 0f29 b4bc 7218 0b3c 42dd dabc 68c1 313d
00000280: 748a 383d f1b6 40bd fd04 163d 71f8 4abd
00000290: 206e 31bd 7770 5abd c33d 4c3c 508d 2f3d
000002a0: 97cd d23b 8519 b5bc f6a9 70bd 49e8 b8ba
000002b0: e9c3 61bc 1587 8cbc ea2e 32bd d4ed 7dbd
000002c0: 122e 2cbd 691e 8b3c c7f5 acbb 6e15 b3bc
000002d0: 6f1b 1f3d 8237 9a3c cdfb 073d 1f4a 0fbd
000002e0: fb49 10bc 5d35 443d f915 01bd f80c 43bc
000002f0: 0722 643d f9dc 40bd 7382 92bd c99e 21bd
00000300: 6ff7 fdbc f6e1 d33b bdb9 b6bd 780f 4b3b
00000310: 4915 05bd 3e3b 83bd 7894 9a3d 73c2 303e
00000320: a37d 2b3e 8aa7 e93c 23aa 1c3d f96a 8d3d
00000330: be09 d5bd 4721 b93b 3bf2 9abc 6bfa 10bd
00000340: 1edd 19bd 55f4 5bbc f095 febc fffd 02bd
00000350: ada7 9cbd 7ac4 a2bd 662c fc3b aad7 e33c
00000360: f87f 913c dcec 3d3d 013f ef3c fee2 92bd
00000370: c001 563c 25e8 003d e5f3 4a3c 5c12 953c
00000380: 32f9 9abc 330e 88bd fdb3 0f3c 6562 8fb9
00000390: 2c19 80bd 648f 83bd 76ef 97bd b96b e7bd
000003a0: f097 e0bd b0e1 8cbd f400 54bc 3fa2 f23c
000003b0: 787e 1e3d c579 bcbc 6fc7 e8bb 2a36 ab3d
000003c0: b7ea b0bd 5ff3 773c 2319 2dbd f607 99bd
000003d0: 0e9d b4bd 5a74 98bd 1715 7dba 0966 bdbb
000003e0: 98c3 a0bd 6030 0dbd b935 d2bc 9f92 b3bd
000003f0: 47db debc 3c32 b7bd 018c 8b3b acfc d6bd

conv2.bias f4 [64]
0.20974196 -0.008323622 -0.23979998 -0.06130417 0.26631206 -0.12906176 -0.09151657 -0.18737137
0.18760256 0.043138374 -0.18013501 -0.09300402 0.004549259 -0.13916811 -0.071488 -0.05025866
-0.023923943 -0.107679196 0.10296956 0.1514004 -0.11757423 -0.15350907 0.20363826 -0.17172147
-0.3271782 -0.061041746 -0.30751348 -0.0034190794 -0.2657522 -0.14824878 0.071274504 0.043632273
-0.08026772 0.061921313 -0.22566627 -0.017697992 0.11865075 -0.096773535 0.07502011 -0.06600695
-0.024318298 -0.16412885 -0.11776317 -0.10342307 -0.50307846 -0.32242802 -0.06847026 -0.1862369
-0.015075205 -0.14800245 -0.12661532 0.05846245 -0.12980412 -0.1048132 0.048842486 -0.1980204
-0.04014696 -0.3142882 -0.08747625 -0.11810847 -0.2281395 -0.073093876 0.00012891754 0.13599806
00000000: 99c6 563e cd5f 08bc 208e 75be 151a 7bbd
00000010: 0e5a 883e c428 04be 0a6d bbbd 48de 3fbe
00000020: e31a 403e ddb1 303d 5075 38be e478 bebd
00000030: f311 953b 1682 0ebe 4d68 92bd 06dc 4dbd
00000040: 25fc c3bc e986 dcbd b4e1 d23d b508 1b3e
00000050: c2ca f0bd 7b31 1dbe 8c86 503e c1d7 2fbe
00000060: e783 a7be e906 7abd 6872 9dbe a212 60bb
00000070: ac10 88be 87ce 17be 5ef8 913d c1b7 323d
00000080: 6763 a4bd 34a1 7d3d 0f15 67be 61fb 90bc
00000090: 2aff f23d 3431 c6bd 25a4 993d a72e 87bd
000000a0: 2b37 c7bc 6511 28be d12d f1bd 79cf d3bd
000000b0: c0c9 00bf 4915 a5be 233a 8cbd e3b4 3ebe
000000c0: fefd 76bc f48d 17be 72a7 01be 5276 6f3d
000000d0: 5feb 04be 4ea8 d6bd 0f0f 483d dcc5 4abe
000000e0: 2471 24bd 62ea a0be c026 b3bd dbe2 f1bd
000000f0: 679d 69be 3eb2 95bd 0a2e 0739 1343 0b3e

conv3.weight f4 [64, 64, 3, 3]
-0.051954642 -0.089160345 0.018214524 -0.011003089 -0.07817322 0.020916203 -0.04233797 -0.038115818
0.05270069 0.0046859737 -0.05074061 0.022290947 0.04097332 -0.041921664 -0.024944019 0.0043634665
-0.032112323 0.024448723 -0.059106234 -0.044791136 -0.00042796528 -0.0033617863 -0.014525319 -0.06690758
-0.06622338 0.004259504 0.023415452 -0.039585263 -0.049339622 0.02469413 0.008482719 -0.018051965
-0.052347295 -0.09077395 -0.055314064 -0.005558667 -0.09438349 -0.054645866 0.10392883 -0.038650148
0.06922636 0.024337847 -0.01101522 0.016850092 -0.032406587 -0.015763558 0.011786687 -0.021435507
0.025273986 -0.016285386 -0.009143588 0.01202713 0.008789676 0.010596865 0.026570382 -0.04014822
-0.017333416 -0.04556689 -0.008997036 -0.0019144301 -0.0026513229 -0.016584355 -0.011899606 0.015733505
0.067975774 0.036086954 -0.033988584 0.013346525 0.029519321 -0.015165488 0.020922834 -0.014186237
0.002354644 0.04970321 0.09739469 -0.053546276 0.1058022 0.14630699 -0.027624736 0.023966534
0.04698921 -0.036089763 0.025458073 -0.048000105 -0.03619608 0.050547488 0.06310006 -0.0135452375
0.05811194 0.067988 -0.08321252 -0.09330254 0.023399526 -0.07335589 -0.02812719 0.037799843
-0.021404618 -0.036124937 0.09181842 -0.06200832 -0.048734535 0.026135106 -0.007701895 -0.012810624
-0.0033330505 -0.024344107 -0.027474444 0.08679955 -0.04686683 0.02557492 -0.021582369 7.598899e-05
-0.036942493 -0.0029099819 -0.05304669 -0.009131342 -0.036622 -0.030061414 0.053946514 0.050527085
0.031110194 -0.005461687 -0.0198349 -0.021523833 -0.08420448 -0.041176006 0.0075161615 0.028602263
0.016202807 0.018147884 -0.0043804813 -0.06644511 0.0017581704 0.01922899 -0.042553242 0.07153537
-0.011436686 0.019068098 0.013060767 0.038161054 0.024562914 -0.049263347 -0.032633353 0.0077759493
-0.06387392 -0.03177687 0.14275053 -0.12127155 0.0030683652 0.15109368 -0.014344113 0.06948275
0.104805745 -0.08248678 0.008653909 0.0034672932 0.05948929 0.026891747 -0.12116542 -0.056791924
-0.07748389 0.026138032 -0.0429923 0.038108904 0.0032416298 -0.023351576 0.03613599 0.039784633
-0.029446041 0.029150268 -0.009078157 0.050620593 0.111466825 0.00032819484 -0.07987667 -0.05576541
-0.051356446 -0.018837877 -0.05963613 0.02885791 0.04139275 -0.040228542 0.025241178 0.0343841
0.023445686 -0.05890815 -0.0098666595 -0.01871414 -0.04727405 -0.07919975 -0.048720494 -0.0038936413
-0.050887678 -0.026379284 -0.008083516 -0.012195467 -0.04387092 -0.0019703265 -0.031793527 -0.030330906
0.03323449 -0.054564122 0.012044091 0.08618347 0.016035346 -0.004176549 0.04122177 0.000513948
-0.03460674 0.027404731 0.07110413 0.017380923 -0.06375803 0.025916446 -0.020883262 0.017394345
-0.008188329 -0.0072018728 0.0019847637 -0.020248951 -0.021110697 -0.02174653 0.014480362 -0.030897066
-0.0050216806 0.0048069493 -0.02752124 0.005028046 -0.019660514 -0.053780004 -0.05545732 -0.09451869
-0.06372729 0.031196248 -0.02335375 -0.0032210408 0.005018103 0.055800878 0.054045573 -0.07598458
-0.008846278 0.02954081 -0.060187995 -0.05249571 0.011439923 0.016711496 0.030066827 0.023100559
-0.040129244 0.04198608 0.029013528 0.023389287 -0.01751819 0.027616542 -0.0037125195 -0.013131366
00000000: 64ce 54bd b399 b6bd a036 953c 4d46 34bc
00000010: 4819 a0bd 7558 ab3c 946a 2dbd 551f 1cbd
00000020: aedc 573d cc8c 993b 63d5 4fbd 819b b63c
00000030: a4d3 273d 0db6 2bbd 6657 ccbc 69fb 8e3b
00000040: 3688 03bd b048 c83c 6119 72bd e976 37bd
00000050: 8760 e0b9 6a51 5cbb 9bfb 6dbc d706 89bd
00000060: 20a0 87bd 4f93 8b3b c3d1 bf3c 2824 22bd
00000070: 5818 4abd 584b ca3c 1afb 0a3c b7e1 93bc
00000080: 1e6a 56bd b1e7 b9bd 0091 62bd 7a25 b6bb
00000090: 224c c1bd 58d4 5fbd a3d8 d43d 9e4f 1ebd
000000a0: 8dc6 8d3d 2a60 c73c 2e79 34bc 3409 8a3c
000000b0: c5bc 04bd 9422 81bc f31c 413c 8499 afbc
000000c0: 640b cf3c ee68 85bc fdce 15bc 710d 453c
000000d0: 9302 103c 799e 2d3c 21aa d93c 7672 24bd
000000e0: cffe 8dbc 59a4 3abd 4e68 13bc 9ded faba
000000f0: d1c1 2dbb eadb 87bc 91f6 42bc 8de3 803c
00000100: e236 8b3d eacf 133d 9d37 0bbd 62ab 5a3c
00000110: 81d2 f13c ab78 78bc 5d66 ab3c 646d 68bc
00000120: 5f50 1a3b 9895 4b3d de76 c73d 5753 5bbd
00000130: d3ae d83d 80d1 153e 454d e2bc 7755 c43c
00000140: c277 403d dcd2 13bd 738d d03c c29b 44bd
00000150: 5742 14bd e20a 4f3d 9b3a 813d d8ec 5dbc
00000160: c906 6e3d 4b3d 8b3d 536b aabd 6715 bfbd
00000170: 5db0 bf3c 9d3b 96bd fe6a e6bc 02d4 1a3d
00000180: bd58 afbc bef7 13bd 4c0b bc3d 70fc 7dbd
00000190: dd9d 47bd 4a19 d63c 2e60 fcbb a7e3 51bc
000001a0: 4f6f 5abb 4b6d c7bc 1612 e1bc f6c3 b13d
000001b0: 6ff7 3fbd 7f82 d13c 82cd b0bc 475c 9f38
000001c0: 0351 17bd 65b5 3ebb 7c47 59bd a09b 15bc
000001d0: f300 16bd 5b43 f6bc 05f7 5c3d 7df5 4e3d
000001e0: ceda fe3c f4f7 b2bb cd7c a2bc c052 b0bc
000001f0: 6673 acbd 2ca8 28bd 224a f63b 4b4f ea3c
00000200: c0bb 843c dfaa 943c 248a 8fbb 6014 88bd
00000210: 6972 e63a 1d86 9d3c 4f4c 2ebd 2381 923d
00000220: f060 3bbc b334 9c3c d4fc 553c c44e 1c3d
00000230: 2a38 c93c 5dc8 49bd 8daa 05bd 64cd fe3b
00000240: 54d0 82bd 7728 02bd 322d 123e 385d f8bd
00000250: a016 493b 4db8 1a3e 9203 6bbc f94c 8e3d
00000260: 65a4 d63d d4ee a8bd 20c9 0d3c 873b 633b
00000270: 0bab 733d 154c dc3c 9325 f8bd a69e 68bd
00000280: e0af 9ebd 6d1f d63c b218 30bd 1518 1c3d
00000290: 8671 543b ce4b bfbc 5503 143d 36f5 223d
000002a0: d338 f1bc 8bcc ee3c 8dbc 14bc 8a57 4f3d
000002b0: b848 e43d 9111 ac39 6196 a3bd 456a 64bd
000002c0: 235b 52bd e451 9abc 0445 74bd 6c67 ec3c
000002d0: 728b 293d afc6 24bd 96c6 ce3c 58d6 0c3d
000002e0: 2b11 c03c ac49 71bd c5a7 21bc 654e 99bc
000002f0: 6fa2 41bd 7b33 a2bd 248f 47bd 762c 7fbb
00000300: 996f 50bd 5e19 d8bc b970 04bc 7fcf 47bc
00000310: feb1 33bd 9820 01bb ee39 02bd 8578 f8bc
00000320: e320 083d a17e 5fbd 9454 453c f680 b03d
00000330: 8f5c 833c 6fdb 88bb 29d8 283d 77ba 063a
00000340: ccbf 0dbd e37f e03c 0b9f 913d 7062 8e3c
00000350: 9293 82bd ba4e d43c 6013 abbc 967e 8e3c
00000360: 5728 06bc b0fd ebbb cf12 023b 21e1 a5bc
00000370: 57f0 acbc c725 b2bc 0a3f 6d3c d81b fdbc
00000380: e98c a4bb 9d83 9d3b 3974 e1bc 4fc2 a43b
00000390: 160f a1bc 6c48 5cbd 3727 63bd 0493 c1bd
000003a0: 7483 82bd 468f ff3c 5d50 bfbc 1918 53bb
000003b0: e66e a43b 768f 643d e45e 5d3d ce9d 9bbd
000003c0: fbef 10bc 92ff f13c b087 76bd be05 57bd
000003d0: 846e 3b3c 8ce6 883c b54e f63c 623d bd3c
000003e0: 905e 24bd 99f9 2b3d c7ad ed3c e49a bf3c
000003f0: 4f82 8fbc 163c e23c be4d 73bb f124 57bc

conv3.bias f4 [64]
0.12207445 0.017241217 0.11317788 -0.3127719 -0.07355329 -0.12049477 0.09622598 -0.08527461
-0.13987607 0.15114564 0.015768165 0.00572166 0.24721755 0.064260565 -0.10199041 0.41155195
-0.04064844 0.14828752 -0.25552088 0.15796296 -0.046744566 -0.007817867 -0.07065964 0.019070832
-0.038469613 -0.03710455 -0.012338298 -0.09202259 0.056612756 -0.21848288 -0.042601172 -0.06299993
-0.16847678 -0.19395183 0.012396866 -0.07549758 0.006261234 0.21312341 -0.08403522 -0.08748617
0.06281928 -0.19181581 0.048519988 0.31607348 -0.18147233 -0.0054320786 -0.19688268 0.10204563
-0.035491638 -0.08075849 0.023606738 -0.12680842 0.18101437 -0.07542264 -0.097024515 0.27232862
-0.02533802 -0.045028575 -0.16452989 -0.0021751379 0.08165889 -0.004071622 0.2250787 -0.18400426
00000000: 2b02 fa3d 743d 8d3c cec9 e73d a323 a0be
00000010: 1ba3 96bd f6c5 f6bd 2012 c53d 74a4 aebd
00000020: ac3b 0fbe ecc5 1a3e 3d2c 813c c37c bb3b
00000030: 9926 7d3e 0b9b 833d 59e0 d0bd f0b6 d23e
00000040: fb7e 26bd afd8 173e a2d3 82be 0bc1 213e
00000050: 3b77 3fbd 8316 00bc 00b6 90bd 6f3a 9c3c
00000060: 5092 1dbd f1fa 17bd 9326 4abc 5776 bcbd
00000070: c7e2 673d fab9 5fbe 917e 2ebd 1b06 81bd
00000080: 2d85 2cbe 4f9b 46be 3a1c 4b3c 7a9e 9abd
00000090: 0a2b cd3b 063d 5a3e a81a acbd f32b b3bd
000000a0: 65a7 803d 5d6b 44be e5bc 463d 62d4 a13e
000000b0: e2d3 39be 94ff b1bb 9d9b 49be 4dfd d03d
000000c0: ae5f 11bd b564 a5bd eb62 c13c 11da 01be
000000d0: d55b 393e 2f77 9abd cab4 c6bd a86e 8b3e
000000e0: ae91 cfbc e26f 38bd 867a 28be c28c 0ebb
000000f0: c73c a73d 3e6b 85bb 087b 663e 9d6b 3cbe

fc.weight f4 [7, 1536]
0.050422348 -0.012288178 -0.03566899 -0.046443142 -0.026815472 0.050059292 -0.010939404 0.11182792
0.030312883 0.014395313 -0.0015626749 -0.0008466168 -0.040482227 0.022331413 0.10275769 -0.05913074
-0.060715098 -0.012296675 -0.025010373 0.062897295 0.23040521 0.0553473 0.02325546 0.006789603
-0.07717132 -0.040083446 0.039910477 -0.015530204 0.040063333 0.1280162 -0.12677656 -0.083871305
-0.086801596 0.00025711898 0.051715706 0.035606276 -0.06819412 0.025173545 -0.091399185 0.13861561
0.15393089 0.05612158 -0.03775337 -0.05287332 0.019063056 0.18261921 0.1312444 0.03832042
0.039097138 -0.030117912 -0.036032528 -0.027247926 0.042245552 0.0060228137 0.07996104 -0.00020430268
-0.046207372 -0.08677379 0.017936936 -0.012393101 0.0104736425 0.02858862 -0.00052735937 -0.0461989
0.043243423 0.07253999 0.037876084 -0.024252126 -0.03495572 -0.0031845057 0.0037477994 0.08117155
0.047294676 0.05011244 0.025401216 -0.00052715256 -0.0021459402 -0.09384677 0.07123606 0.028863423
0.0012529877 -0.03814595 0.03355117 -0.0043615163 0.06203489 0.07319664 -0.0024948346 -0.04451264
-0.0366001 0.012173811 0.010467026 0.044707336 0.15284649 0.08448422 -0.032168694 0.010301027
0.011645949 -0.04277383 -0.06734227 -0.028058846 -0.013878399 0.05131651 0.022691742 -0.005390956
-0.10680974 -0.102631964 -0.062569715 -0.0787575 0.0410896 0.034071673 -0.10128695 -0.09560182
-0.0106445225 -0.016947959 -0.04946684 0.011142524 -0.07316084 -0.048968874 -0.006721861 0.008857974
-0.021016741 -0.023187026 -0.03965499 -0.047995623 -0.021571869 -0.069255315 -0.04952678 -0.05326134
-0.0321209 -0.056907993 -0.020651437 -0.027272632 0.016923161 0.066081814 -0.051615663 -0.055704772
-0.048482906 -0.037999097 -0.00045012071 0.0697796 0.005851407 0.017849784 0.05013255 -0.01058626
0.112327255 0.04284765 0.0046649044 -0.004448417 0.03715666 0.11124881 -0.042752586 -0.06181553
0.00037749964 -0.119526654 -0.05455902 0.017462667 -0.002147128 -0.0071625086 -0.026255338 -0.009891508
-0.09629125 -0.035337254 0.036072 0.0113284215 0.016723383 -0.037139818 0.013305437 -0.029874638
0.04534749 0.027086247 0.01336601 0.022092482 0.0431788 0.04876219 0.06442203 0.006578348
-0.0014246744 -0.022402663 0.036357224 0.016640665 0.04747323 0.010383999 -0.04571063 0.006459603
-0.02929946 0.002997102 -0.011154245 -0.020100866 -0.050497465 -0.009844212 0.0026951008 0.00057798537
-0.08747729 0.049549293 0.06288492 -0.008735862 0.03517296 0.07365364 -0.028460875 0.1220557
-0.0005145376 -0.044019565 0.022193674 0.10656279 -0.10846168 0.17191665 -0.036773216 0.023682417
0.035863962 0.097778596 0.026933739 0.11905121 0.07260343 0.12841535 0.10872806 0.09410081
-0.011643555 -0.10320028 -0.09836243 -0.055859268 -0.02024002 -0.09642235 -0.055988826 -0.07091465
-0.11976744 -0.13711919 -0.040724162 -0.047084287 0.03955611 -0.04619293 -0.19878468 -0.11876838
-0.05262162 -0.038477723 0.052390754 -0.03523996 -0.12492319 -0.04720838 -0.057244938 -0.06360572
0.024520183 0.062706664 -0.1104527 0.043521408 0.10111664 -0.050854404 0.08954306 -0.050488193
-0.027792519 0.1573891 0.08622128 0.07504944 0.06954269 -0.011285529 0.05582136 -0.028051792
00000000: aa87 4e3d 5b54 49bc a619 12bd 2a3b 3ebd
00000010: 1fac dbbc f90a 4d3d 303b 33bc 0906 e53d
00000020: b952 f83c 52da 6b3c abd2 ccba 7eef 5dba
00000030: b1d0 25bd 5ef0 b63c a072 d23d 1333 72bd
00000040: 65b0 78bd fe77 49bc 8ee2 ccbc 4cd0 803d
00000050: 58ef 6b3e dab3 623d 3c82 be3c 517b de3b
00000060: ff0b 9ebd 8a2e 24bd 2b79 233d 6672 7ebc
00000070: 7319 243d ae16 033e b7d1 01be b8c4 abbd
00000080: 09c5 b1bd edcd 8639 d9d3 533d e3d7 113d
00000090: 5ca9 8bbd c038 ce3c 7f2f bbbd 40f1 0d3e
000000a0: 0fa0 1d3e bedf 653d 47a3 1abd b291 58bd
000000b0: 202a 9c3c 8800 3b3e ef64 063e dff5 1c3d
000000c0: 5224 203d d7b9 f6bc d896 13bd 0b37 dfbc
000000d0: ac09 2d3d 065b c53b 9dc2 a33d 153a 56b9
000000e0: f143 3dbd 75b6 b1bd 7bf0 923c 6f0c 4bbc
000000f0: a499 2b3c ae32 ea3c 7d3e 0aba 0f3b 3dbd
00000100: 0420 313d d98f 943d f423 1b3d 65ac c6bc
00000110: bb2d 0fbd 24b3 50bb a49d 753b 453d a63d
00000120: 10b8 413d b442 4d3d 3616 d03c 9c30 0aba
00000130: e7a2 0cbb bc32 c0bd 36e4 913d fc72 ec3c
00000140: 4a3b a43a ed3e 1cbd f46c 093d 0deb 8ebb
00000150: 4c18 7e3d 1fe8 953d 6180 23bb e352 36bd
00000160: fde9 15bd aa74 473c e47d 2b3c 0a1f 373d
00000170: ca83 1c3e 1006 ad3d 52c3 03bd a4c5 283c
00000180: a7ce 3e3c 9d33 2fbd beea 89bd aadb e5bc
00000190: 3962 63bc 4331 523d 08e4 b93c 9ea6 b0bb
000001a0: 11bf dabd b530 d2bd 8d24 80bd 9d4b a1bd
000001b0: 924d 283d bd8e 0b3d 886f cfbd e3ca c3bd
000001c0: 5d66 2ebc 72d6 8abc be9d 4abd 228f 363c
000001d0: 5ad5 95bd 9693 48bd 0f43 dcbb 0921 113c
000001e0: 4d2b acbc b8f2 bdbc 456d 22bd 0f97 44bd
000001f0: 7db7 b0bc bbd5 8dbd 98dc 4abd 9028 5abd
00000200: 3491 03bd 5b18 69bd 342d a9bc db6a dfbc
00000210: 71a2 8a3c e755 873d f26a 53bd b02a 64bd
00000220: 0396 46bd f1a4 1bbd 2efe ebb9 9be8 8e3d
00000230: 29bd bf3b b639 923c ca57 4d3d fe71 2dbc
00000240: d50b e63d 0481 2f3d 0edc 983b 07c4 91bb
00000250: 9531 183d 6bd6 e33d 561d 2fbd 4832 7dbd
00000260: 25eb c539 64ca f4bd 4779 5fbd de0d 8f3c
00000270: d5b6 0cbb 7ab3 eabb 6f15 d7bc fe0f 22bc
00000280: 5934 c5bd ccbd 10bd 3cc0 133d d89a 393c
00000290: 7aff 883c ec1f 18bd 0cff 593c a8bb f4bc
000002a0: 4abe 393d fae3 dd3c 1cfd 5a3c 4bfb b43c
000002b0: 41dc 303d ddba 473d b2ef 833d 2f8f d73b
000002c0: 24bc baba ca85 b7bc 50eb 143d 0152 883c
000002d0: 4a73 423d a621 2a3c 123b 3bbd 14ab d33b
000002e0: 6c05 f0bc 076b 443b 4bc0 36bc 92aa a4bc
000002f0: 6ed6 4ebd 9e49 21bc 4aa0 303b f183 173a
00000300: 4b27 b3bd 33f4 4a3d cfc9 803d dc20 0fbc
00000310: 8611 103d b8d7 963d c826 e9bc 57f8 f93d
00000320: 09e2 06ba dc4d 34bd 82cf b53c 983d da3d
00000330: 2821 debd eb0a 303e 839f 16bd a101 c23c
00000340: 17e6 123d 2540 c83d 25a4 dc3c 1fd1 f33d
00000350: 1bb1 943d 507f 033e d1ac de3d edb7 c03d
00000360: 9cc4 3ebc ab5a d3bd 3e72 c9bd b0cc 64bd
00000370: 66ce a5bc 1579 c5bd 8a54 65bd b33b 91bd
00000380: a248 f5bd f968 0cbe 61ce 26bd 74db 40bd
00000390: 9605 223d cc34 3dbd 368e 4bbe d63c f3bd
000003a0: c589 57bd d19a 1dbd b097 563d c757 10bd
000003b0: bbd7 ffbd 935d 41bd ab79 6abd b743 82bd
000003c0: 8dde c83c 5a6c 803d 0635 e2bd 8143 323d
000003d0: 3e16 cf3d b54c 50bd 5a62 b73d b5cc 4ebd
000003e0: 23ad e3bc 9c2a 213e c894 b03d 85b3 993d
000003f0: 666c 8e3d f0e6 38bc f0a4 643d dfcc e5bc

fc.bias f4 [7]
-0.1219532 0.23214108 0.55718184 -0.17899607 -0.7020602 0.6640444 -0.40229008
00000000: 99c2 f9bd 64b6 6d3e 78a3 0e3f bf4a 37be
00000010: 38ba 33bf d0fe 293f f7f8 cdbe
