results/model_states/simple_model.pth (torch, 271612 bytes, 8 tensors)

conv1.weight f4 [32, 3, 3, 3]
0	0x3c692191	0.014229194
1	0xbd444e9f	-0.04792654
2	0x3e2ad408	0.16682446
3	0x3e2a4d08	0.16630948
4	0x3e9b5d02	0.30344397
5	0x3dcdf6d8	0.10056847
6	0x3e9c86e4	0.30571663
7	0xbab1d2ac	-0.0013566813
8	0x3e755b8a	0.239607
9	0xbd971375	-0.07376758
10	0xbe5d356b	-0.21602409
11	0xbe7d8647	-0.24758254
12	0xbe994681	-0.29936603
13	0xbe12b138	-0.14325416
14	0x3c2c264c	0.010507178
15	0xbe7bd978	-0.24594676
16	0xbdb0e80d	-0.0863801
17	0xbdf2dcab	-0.11858495
18	0x3c90c5fb	0.01767253
19	0xbdc77a95	-0.097401775
20	0x3dc89109	0.09793288
21	0x3d30bce1	0.04314888
22	0xbd9368ff	-0.07197761
23	0xbdc5f866	-0.09666519
24	0x3d96cda9	0.07363445
25	0xbce60529	-0.028078632
26	0x3d98d0c3	0.07461693
27	0x3e389935	0.18027194
28	0xbe0f3292	-0.13984135
29	0xbe152c06	-0.14567575
30	0x3dd293d0	0.10282099
31	0xba9327d5	-0.0011227081
32	0x3dd36a18	0.1032297
33	0x3e86a136	0.2629487
34	0x3ce45863	0.027874177
35	0x3ddedd3e	0.10882042
36	0xbdba1550	-0.09086096
37	0x3e1e0b60	0.15434027
38	0x3deddcf9	0.11614413
39	0x3bf0deb1	0.0073507656
40	0xbd11280a	-0.035438575
41	0x3ce3e864	0.027820773
42	0x3e87f3b4	0.26553118
43	0xbdde543f	-0.108559124
44	0x3e0ab89e	0.13546988
45	0xbdfa8176	-0.12231724
46	0xbdb174e7	-0.086648755
47	0xbe4f484f	-0.20242427
48	0x3e3a759c	0.18208927
49	0xbe818f21	-0.2530451
50	0xbe4777b2	-0.19479254
51	0x3e9bd67d	0.3043708
52	0xbd87c02c	-0.06628451
53	0xbe336c33	-0.17521743
54	0xbe555439	-0.2083291
55	0xbe1f1f7d	-0.15539356
56	0xbbee64ca	-0.0072751986
57	0x3d86f789	0.06590182
58	0xbc928866	-0.017887305
59	0x3e144396	0.14478907
60	0xbe021e15	-0.12706788
61	0x3d5c84e3	0.05383767
62	0x3d6869e6	0.056741618
63	0xbeb775b3	-0.35831985
64	0xbe76c3da	-0.24098149
65	0x3e7ea6ff	0.24868391
66	0xbe93c5d1	-0.2886186
67	0xbcd3b91e	-0.025845107
68	0xbd407b1a	-0.0469924
69	0xbe5823da	-0.21107426
70	0x3dc44bce	0.09584771
71	0x3e070cf6	0.13188538
72	0xbeadd747	-0.33953306
73	0xbdf610b3	-0.12014904
74	0x3e904452	0.28177124
75	0xbe971710	-0.29509783
76	0x3db4719d	0.088107325
77	0x3ec4ad63	0.38413534
78	0x3e3676ef	0.17818807
79	0x3e0ef735	0.1396149
80	0x3ed1024f	0.40822074
81	0x3e82c94c	0.25544202
82	0x3e11346b	0.14180152
83	0x3e1207bb	0.14260761
84	0x3d94b6a6	0.072614
85	0xbbf32f73	-0.007421428
86	0xbdf5623c	-0.11981627
87	0x3e2f54df	0.1712222
88	0x3e8a9d0b	0.2707294
89	0x3e121295	0.14264901
90	0xbe9765a3	-0.2956973
91	0xbeea57dd	-0.4577016
92	0xbeea7c7a	-0.45798093
93	0xbef5baf0	-0.47994184
94	0xbe025da3	-0.12731032
95	0xbeeb5a49	-0.4596732
96	0xbe6e6baa	-0.23283258
97	0xbee2586f	-0.44208094
98	0xbeb28a75	-0.3487126
99	0x3e9e0fd6	0.30871457
100	0x3ec8e03d	0.3923358
101	0x3e9b7611	0.30363515
102	0x3e56f507	0.20991908
103	0x3edc2f26	0.4300472
104	0x3e416779	0.18887128
105	0x3ed65c54	0.41867316
106	0x3ed7845c	0.4209317
107	0x3e27fd9a	0.16405335
108	0x3e7eb90e	0.2487528
109	0x3e96dbd9	0.29464605
110	0x3e7829a8	0.2423464
111	0x3de4f361	0.11179233
112	0x3eae733e	0.34072298
113	0x3e83e68d	0.25761834
114	0x3e063c51	0.13108946
115	0x3e803a51	0.25044492
116	0x3eb13b4f	0.3461556
117	0xbe4d1a85	-0.20029648
118	0xbe705f11	-0.23473765
119	0xbe3dcf0a	-0.1853601
120	0xbed5a0b5	-0.41724172
121	0xbed13a62	-0.40864855
122	0xbe68370a	-0.22677246
123	0xbec0df00	-0.37670135
124	0xbebbc5e5	-0.3667442
125	0xbea77043	-0.32702836
126	0x3c1ff02c	0.009761851
127	0x3d33c1a2	0.043885835
128	0x3db57690	0.088605046
129	0x3d7a319c	0.061082467
130	0xbc5edb70	-0.013602123
131	0x3d29d1de	0.04145991
132	0x3d0b3010	0.033981383
133	0x3ce540d5	0.027985016
134	0x3db976b9	0.09055848
135	0x3d4a5e90	0.049406588
136	0x3b5fb427	0.0034134479
137	0x3dc32e3f	0.09530305
138	0xbde6d1c4	-0.11270478
139	0xbc7078f1	-0.014677272
140	0x3d9b322b	0.07577928
141	0x3d57c2b4	0.052675918
142	0xbdc42de2	-0.09579064
143	0xbe21ab51	-0.15788008
144	0xbda09cf3	-0.07842436
145	0x3c26abcf	0.010172798
146	0xbcf01c8c	-0.029310487
147	0xbd310344	-0.043216005
148	0xbdc4bbe8	-0.09606153
149	0x3cf2becf	0.029632
150	0x3e253744	0.16134363
151	0x3da6c719	0.081434436
152	0xbd6fe2b2	-0.058565803
153	0xbeb29753	-0.34881076
154	0xbed00847	-0.40631315
155	0xbec2dd29	-0.38059357
156	0xbe5f1e10	-0.21788812
157	0xbea3ba29	-0.31977966
158	0xbea4bd8a	-0.32175857
159	0xbea9d998	-0.33173823
160	0xbea564e2	-0.3230353
161	0xbe3665f1	-0.17812325
162	0x3cd15e00	0.025557518
163	0xbe837a6b	-0.25679335
164	0xbbf535e1	-0.0074832295
165	0xbdc6517a	-0.09683509
166	0xbe8866eb	-0.2664102
167	0x3e6aa4ae	0.22914383
168	0x3d0f9877	0.03505751
169	0x3d9009c7	0.07033115
170	0xbd9441c6	-0.07239108
171	0xbe18b7ef	-0.14913915
172	0xbd9924e8	-0.074777424
173	0x3e1d9caf	0.15391801
174	0xbd30b5c8	-0.04314211
175	0x3e29ef70	0.16595244
176	0x3ef8427f	0.48488232
177	0x3e383dbe	0.17992303
178	0xbde087cd	-0.10963402
179	0x3e989799	0.2980316
180	0xbec00578	-0.37504172
181	0x3d3cc389	0.046084914
182	0x3eac18f3	0.33612785
183	0xbea61d17	-0.3244407
184	0xbe88e86c	-0.26739824
185	0x3ed90369	0.42385414
186	0xbe9712f5	-0.2950665
187	0xbd8d1cff	-0.06890296
188	0xbd8bddcf	-0.06829416
189	0xbea29e87	-0.31761572
190	0x3d5d99e4	0.05410184
191	0xbe70b56c	-0.23506707
192	0xbeb54e48	-0.35411286
193	0x3dc7faab	0.09764608
194	0x3d9cdaf6	0.07658951
195	0xbbeb6d3e	-0.0071846535
196	0x3d9ca130	0.076479316
197	0xbe7aa8b1	-0.24478413
198	0xbd8fab29	-0.07015068
199	0x3de2a083	0.110657714
200	0xbddb57b1	-0.10710085
201	0xbe01407e	-0.12622258
202	0x3e3388cc	0.17532653
203	0x3e5e3380	0.21699333
204	0xbd54538c	-0.05183749
205	0x3e9c3ccc	0.30515134
206	0xbcd11804	-0.025524147
207	0x3e42c173	0.19019108
208	0x3deda316	0.11603372
209	0x3cee85f0	0.0291166
210	0xbe30db58	-0.17271173
211	0x3cf30dc6	0.029669654
212	0xbe012ce8	-0.12614787
213	0x3e637cd4	0.22215587
214	0x3d91eda0	0.071254015
215	0x3e2bbe3a	0.16771784
216	0x3e2f7928	0.17136061
217	0xbd8673fa	-0.065650895
218	0x3e2680b1	0.1626003
219	0x3d5ad861	0.05342901
220	0xbd6e9869	-0.05825082
221	0xbd041d26	-0.03225436
222	0x3d022ebf	0.03178286
223	0xbc66247b	-0.014046784
224	0x3dc12bd5	0.094321884
225	0x3d8c9371	0.0686406
226	0xbd538409	-0.05163959
227	0x3d4d7c58	0.05016741
228	0xbd8afb78	-0.06786245
229	0x3e483c0c	0.19554156
230	0xbcff5dab	-0.031172594
231	0xbd14765e	-0.036245696
232	0xbd5de7fb	-0.054176312
233	0xbda52558	-0.080637634
234	0xbdf38a26	-0.11891584
235	0x3d008122	0.03137315
236	0x3dcc3f7f	0.099730484
237	0x3d6c86cc	0.05774574
238	0xbe9cfe9a	-0.30662996
239	0xbea8cd49	-0.3296912
240	0xbcc495b7	-0.02399717
241	0xbe0af998	-0.13571775
242	0xbe95c53d	-0.29252043
243	0x3e9c6382	0.30544668
244	0x3ebdcdce	0.3707108
245	0x3c4a9505	0.012364631
246	0x3deec158	0.11657971
247	0x3e9875a9	0.29777268
248	0x3e9360d3	0.2878481
249	0xbd81f15b	-0.06344863
250	0x3e8ce88a	0.27521163
251	0x3e769ed5	0.24084027
252	0xbd887534	-0.0666298
253	0x3e0db832	0.13839796
254	0x3dfae0fe	0.12249945
255	0xbdaae253	-0.08343949

conv1.bias f4 [32]
0	0xbee994cc	-0.45621336
1	0xbe07b0dc	-0.1325106
2	0xbcaa7bd7	-0.020811005
3	0xbe3f3520	-0.1867261
4	0xbf40ea1a	-0.7535721
5	0xbf038100	-0.51368713
6	0x3e22ef34	0.15911561
7	0x3e988e58	0.297961
8	0xbc02d88a	-0.007986197
9	0xbf56b6ab	-0.8387248
10	0x3e8feefc	0.28112018
11	0xbe744ed5	-0.23858197
12	0x3ef8ba54	0.48579657
13	0xbedde989	-0.43342236
14	0xbde05dd3	-0.109553955
15	0x3f3fd69f	0.7493686
16	0x3e08a40f	0.13343833
17	0x3f287ca1	0.6581517
18	0xbf13a422	-0.5767232
19	0x3b24a897	0.0025124901
20	0xbe3beab6	-0.18351254
21	0xbe49c041	-0.19702245
22	0x3e8dc846	0.2769186
23	0xbeae9ebd	-0.34105483
24	0xbef3ba6c	-0.47603166
25	0xbeac65e6	-0.33671492
26	0xbef1885e	-0.47174352
27	0x3e6ee0a0	0.23327875
28	0x3d908c2d	0.070579864
29	0x3e3a4651	0.18190886
30	0xbe5dc022	-0.21655324
31	0xbeeac14b	-0.45850596

conv2.weight f4 [64, 32, 3, 3]
0	0xbddcad15	-0.107752
1	0xbd787ddd	-0.060666908
2	0xbd965067	-0.07339554
3	0xbdbc9a12	-0.09209074
4	0xbca2c8e1	-0.019871177
5	0x3c47b67b	0.012189503
6	0xbdaf7076	-0.08566372
7	0xbd818d68	-0.06325799
8	0xbcbf8683	-0.02337957
9	0x3d4d1b9e	0.050075166
10	0x3d7b2ca5	0.061321873
11	0xbcdc4211	-0.026886972
12	0x3d804082	0.06262304
13	0x3ce78712	0.028262649
14	0x3d348608	0.044073135
15	0x3da73d0b	0.0816594
16	0x3d054a4b	0.032541554
17	0x3db96407	0.09052282
18	0xbdb3d66a	-0.087811306
19	0x3c2e10bb	0.010624106
20	0x3bd65904	0.006541373
21	0xbd7757c2	-0.060386427
22	0xbd89d93d	-0.06730888
23	0x3d0a1d64	0.033719435
24	0xbc28ce6a	-0.010303119
25	0x3c80560f	0.015666036
26	0xbd9bb89e	-0.07603572
27	0x3d05a585	0.032628555
28	0x3bc8a182	0.006122769
29	0xbce4243c	-0.02784931
30	0x3c9c277a	0.019061793
31	0xbd2e3830	-0.042534053
32	0xbe250f58	-0.16119134
33	0xbc53b1d9	-0.01292082
34	0x3c69468d	0.014238012
35	0xbdd9b884	-0.10630897
36	0xbddc44eb	-0.107553326
37	0xbe07d533	-0.13264923
38	0xbda10b38	-0.07863468
39	0xbd9db324	-0.07700184
40	0xbd47ed6a	-0.0488104
41	0xbbdcc8ac	-0.006737789
42	0xbe0839c1	-0.13303281
43	0xbdf41d30	-0.119196296
44	0xbde83dcb	-0.11339911
45	0xbd1b2f8a	-0.037887134
46	0xbba7b450	-0.0051179305
47	0xbdb12d9c	-0.086512774
48	0xbc36bff6	-0.0111541655
49	0x3ca60ba6	0.020269226
50	0x3db0b630	0.086284995
51	0xbd581d66	-0.05276241
52	0x3da37985	0.079821624
53	0x3daba7e4	0.08381632
54	0xbb1fec93	-0.0024402484
55	0x3cd1d42e	0.02561387
56	0x3d89bc74	0.06725398
57	0xbda7cd66	-0.081934735
58	0x3c3daee3	0.011577341
59	0x3ca17f31	0.01971397
60	0xbcb24a85	-0.02176405
61	0xbda6e75a	-0.081495956
62	0x3b2e1079	0.0026560111
63	0x3c71e314	0.014763612
64	0xbda795c0	-0.081828594
65	0xbd667fe2	-0.056274302
66	0x3d00d4f9	0.031453107
67	0xbdd247d8	-0.10267609
68	0xbbd2214a	-0.00641266
69	0x3d0defea	0.034652628
70	0xbd30c563	-0.043156993
71	0xbcc582ab	-0.024110159
72	0x3d18ec29	0.037334595
73	0x3d93e4bd	0.07221363
74	0xb9d7bd7b	-0.0004114917
75	0x3bf0ed35	0.007352496
76	0x3cf81350	0.030282646
77	0x3c10c5df	0.008836239
78	0x3bfe8433	0.007767224
79	0x3d23b5a5	0.03996815
80	0x3d96eff9	0.0736999
81	0x3d5c53d1	0.05379087
82	0xbc574c45	-0.013140743
83	0x3c27b496	0.010235926
84	0x3c3d77f1	0.011564241
85	0xbcbf5b66	-0.023359012
86	0xbcdfe4f9	-0.027330862
87	0x3c9f2db1	0.019430967
88	0x3d367854	0.044548348
89	0x3c74f28f	0.014950409
90	0x3e38d16e	0.18048641
91	0x3dc7ba8a	0.097523764
92	0x3c4ab278	0.012371652
93	0x3dbd5b58	0.09245938
94	0x3d2c2632	0.042028613
95	0x3c926219	0.017869042
96	0x3ca91b30	0.020642847
97	0x3d2b271a	0.041785337
98	0xbd887afc	-0.066640824
99	0x3cc63074	0.024193026
100	0xbc196307	-0.009361989
101	0xbc8576c9	-0.016291993
102	0x3ceb687c	0.028736345
103	0x3cb4a9fa	0.022053707
104	0x3c73df41	0.014884771
105	0x3d0612cc	0.03273277
106	0x3cd14497	0.025545401
107	0xbd602eb3	-0.054732036
108	0xbdab7bf8	-0.083732545
109	0xbdda6902	-0.1066456
110	0xbd6c201a	-0.057647802
111	0xbbed4eb8	-0.00724205
112	0xbd189bc5	-0.03725793
113	0x3ba6f981	0.005095661
114	0x3d18a83f	0.037269827
115	0xbd567a40	-0.05236268
116	0xbc983f82	-0.01858497
117	0xbd556d3b	-0.052106123
118	0x3d9fbc0c	0.07799539
119	0xbd948316	-0.07251565
120	0x3d2949d5	0.041330177
121	0x3d585d8b	0.052823585
122	0xbc8d7699	-0.017268466
123	0xbda79ef3	-0.08184614
124	0x3c76176a	0.015020231
125	0x3da22bb2	0.079184905
126	0x3cd7a0c6	0.02632178
127	0xbc625fca	-0.013816783
128	0xbd2b7899	-0.041863058
129	0x3dd38a26	0.10329084
130	0x396736eb	0.00022050335
131	0xbd8b983a	-0.06816144
132	0x3cd5e4ee	0.026110139
133	0xbd1d1963	-0.03835429
134	0xbdb1aed3	-0.08675923
135	0xbc7cc4a5	-0.015427743
136	0x3d815bbe	0.063163266
137	0x3dd9319a	0.10605164
138	0xbd744819	-0.05963907
139	0x3d018d4b	0.031628888
140	0x3d0f7f7c	0.035033688
141	0x3ca3b068	0.019981578
142	0xbd8b6d40	-0.06807947
143	0xbd9fdf81	-0.07806302
144	0xbcd4a388	-0.025956884
145	0xbd5725e6	-0.052526377
146	0x3d8a9478	0.067665994
147	0xbdbc6a9d	-0.09200022
148	0xbccf4734	-0.025302507
149	0xbb5775e6	-0.003287667
150	0xbd88de7f	-0.06683063
151	0xbc1bba16	-0.009504816
152	0xbd3e4b8d	-0.04645877
153	0xbd399297	-0.045305815
154	0x3d89a79a	0.067214206
155	0x3dcde987	0.100543074
156	0x3cb5d2a4	0.022195168
157	0x3d1daec2	0.03849674
158	0x3d936ece	0.07198869
159	0xbcfd9ea9	-0.030959444
160	0x3c9d2f14	0.019187488
161	0x3cd960f7	0.026535494
162	0xbd689793	-0.056785177
163	0x3ce8af73	0.028403973
164	0xbd62ea16	-0.055399023
165	0xbd19fbde	-0.037593715
166	0xbcf06682	-0.029345755
167	0xbc095769	-0.008382657
168	0x3bc90e89	0.006135766
169	0xbc6a3a90	-0.014296189
170	0x3c119b41	0.008887113
171	0x3b813b2e	0.0039438223
172	0x3bfef400	0.007780552
173	0x3c53b6ef	0.012922033
174	0x3cb983c6	0.022645842
175	0xbc817332	-0.015802
176	0xbc667ae0	-0.014067382
177	0xbcfbedfd	-0.03075313
178	0x3ceb8d49	0.028753893
179	0x3c9db506	0.019251358
180	0xbd84d5eb	-0.06486114
181	0xbc8114ad	-0.01575693
182	0x3d1d6d1a	0.038434125
183	0xbc4533db	-0.012036289
184	0xbd3b0b6c	-0.04566519
185	0xbd7b6404	-0.06137468
186	0xbd8680aa	-0.065675095
187	0x3c94a30a	0.01814415
188	0x3c8bb779	0.01705526
189	0xba8190b2	-0.0009885042
190	0xbcc1ad1b	-0.023642113
191	0xbcdaef64	-0.026725478
192	0xbd653545	-0.055959005
193	0xbc97b8b5	-0.018520692
194	0x3d09cd77	0.033643212
195	0xbd24af0f	-0.04020601
196	0xbc69bdc1	-0.014266432
197	0xbce3c615	-0.027804414
198	0x3dcc6cc7	0.09981685
199	0x3debf6b4	0.11521664
200	0x3d588666	0.052862547
201	0x3d41a4db	0.04727636
202	0xbcd5c420	-0.026094496
203	0xbcdbbe67	-0.02682419
204	0xbd90bdef	-0.07067477
205	0xbc6c2c4f	-0.014414861
206	0xbc51dbcb	-0.01280875
207	0x3dee3195	0.11630551
208	0xbc702cbf	-0.014659106
209	0xbb4868ca	-0.0030580037
210	0x3db4d9f6	0.08830635
211	0xbc5126a6	-0.012765562
212	0x3d1bf4e1	0.03807533
213	0xbc297140	-0.010341942
214	0x3d2d44dc	0.042301998
215	0x3c92b95a	0.017910648
216	0xbdb98b64	-0.0905979
217	0xbd5fffa4	-0.054687157
218	0xbd969c4b	-0.07354029
219	0xbda1a26c	-0.07892308
220	0xbd671d0d	-0.05642419
221	0x3cd65a64	0.026166148
222	0xbd4131db	-0.047166687
223	0x3cdc4ebc	0.026893012
224	0xbd47bb92	-0.048762865
225	0xbd6a9a2b	-0.057275932
226	0xbd4413af	-0.047870334
227	0xbda0721a	-0.07834263
228	0xbc26079b	-0.010133649
229	0xbd090932	-0.033456035
230	0x3c6eb41e	0.0145693105
231	0xbd4f1af2	-0.050562806
232	0x3d265c48	0.04061535
233	0x3d33f18d	0.043931533
234	0x3dc26f14	0.09493843
235	0xbd7827b0	-0.060584724
236	0xbd97097c	-0.07374856
237	0x3db91281	0.090367325
238	0xbd9a2264	-0.07526091
239	0xbda1a2ea	-0.078924015
240	0x3d9720cd	0.07379303
241	0x3d9bd396	0.07608716
242	0xbd1aeafb	-0.03782175
243	0xbd9d4bb3	-0.07680454
244	0xbd38ccc2	-0.045117147
245	0xbd94df80	-0.07269192
246	0x3d6571f1	0.056016866
247	0x3d5eb721	0.054373864
248	0xbd3e8507	-0.046513584
249	0x3bf1ebfc	0.007382868
250	0x3d46b6e7	0.048514273
251	0x3d5d3086	0.054001354
252	0xbbb61a86	-0.005557361
253	0xbdbc174b	-0.0918413
254	0x3bcc664f	0.006237782
255	0xbd53e7fc	-0.05173491

conv2.bias f4 [64]
0	0xbc6cffa0	-0.014465243
1	0xbd1798a1	-0.037010793
2	0x3ccf0721	0.025271954
3	0x3ddda3ac	0.108222336
4	0xbe8bedb2	-0.27329785
5	0xbe01e5b3	-0.1268528
6	0xbd0ee805	-0.03488924
7	0xbe1234bf	-0.14277934
8	0xbe7741c3	-0.2414618
9	0xbe46cff6	-0.19415268
10	0xbda8959b	-0.0823166
11	0xbe898008	-0.26855493
12	0xbd5d77ca	-0.054069318
13	0x3d371ab7	0.04470321
14	0xbd114bfb	-0.03547285
15	0x3d93da92	0.07219423
16	0xbe631e05	-0.2217942
17	0xbd21b5e2	-0.039480098
18	0x3e3cdc4f	0.18443416
19	0xbe893fd4	-0.2680651
20	0xbdbd28e0	-0.09236312
21	0xbe21d26b	-0.15802924
22	0x3e3b2e59	0.18279399
23	0x3bbdabec	0.005788317
24	0xbd865656	-0.06559436
25	0xbe2b0128	-0.1669966
26	0xbe1bdb8e	-0.15220472
27	0xbe1c758d	-0.15279217
28	0x3c284bf1	0.010272012
29	0xbde31f08	-0.11089903
30	0xbdea9372	-0.11453904
31	0xbd14e4d4	-0.03635104
32	0x3dbde82c	0.09272799
33	0xbe45a7d2	-0.193023
34	0xbe90fc2a	-0.28317386
35	0xbe0d4854	-0.13797122
36	0x3d0dcd6e	0.03461974
37	0xbe91a7d9	-0.2844837
38	0xbde623a5	-0.112372674
39	0xbdcfaee4	-0.101407796
40	0x3e13b685	0.14425094
41	0xbe12bb9e	-0.14329383
42	0xbd031859	-0.03200564
43	0x3c960cd2	0.01831666
44	0x3b891ce8	0.004184354
45	0xbe16764e	-0.14693567
46	0xbe10006d	-0.14062662
47	0xbe882125	-0.26587787
48	0xbe3d875d	-0.18508668
49	0xbd4a17e2	-0.049339183
50	0x3d8ddbcb	0.06926688
51	0xbd7defd3	-0.061996292
52	0x3e1fcc43	0.15605263
53	0xbd579114	-0.05262859
54	0xbe11c148	-0.14233887
55	0xbd906381	-0.07050229
56	0x3dc5102d	0.09622226
57	0x3cf6f3d5	0.030145565
58	0xbed39a6f	-0.4132876
59	0xbd8259b8	-0.06364769
60	0x3e2c3e84	0.16820723
61	0xbe031378	-0.12800395
62	0xbc3aeb0c	-0.011408579
63	0xbdafb7db	-0.085799895

conv3.weight f4 [64, 64, 3, 3]
0	0xbd143b25	-0.036189217
1	0xbd9b248e	-0.07575332
2	0xbd944a13	-0.07240691
3	0xbd08c275	-0.033388574
4	0xbcbda7a3	-0.023151224
5	0xbccc9cae	-0.024977054
6	0x3c8c8ebc	0.017157905
7	0x3d170932	0.036874004
8	0x3c06ffd2	0.008239703
9	0xbd1fa524	-0.03897585
10	0x3b819f4c	0.0039557572
11	0x3b40bfe3	0.0029411248
12	0xbcf17552	-0.029474888
13	0xbd0d8a91	-0.034555975
14	0xbd0729b7	-0.032998767
15	0x3cec09fe	0.028813358
16	0xbc856ad0	-0.016286284
17	0xbc3475e2	-0.011014434
18	0x3bd7ea20	0.006589189
19	0x3b95457e	0.0045554033
20	0xbd2bf535	-0.041981895
21	0x3cb83f8d	0.02249124
22	0xbcd7dbd0	-0.026349932
23	0xbd6d8528	-0.057988316
24	0x3d227b1c	0.039668187
25	0x3bc25fa6	0.0059318123
26	0xbc2c3baf	-0.010512277
27	0x3d6b3424	0.057422772
28	0xbb001261	-0.0019542205
29	0xbdd3c639	-0.10340542
30	0xbc0ec2d9	-0.0087134475
31	0x3d27177f	0.040793892
32	0xba6dde78	-0.0009073983
33	0x3b04fe50	0.0020293184
34	0xbccb1fb0	-0.024795383
35	0x3c7b27a2	0.015329273
36	0x3cbf3016	0.023338359
37	0x3d815a30	0.0631603
38	0x3d53300d	0.051559497
39	0xbc229d53	-0.009925204
40	0xbd1fe57c	-0.039037213
41	0xbd62decf	-0.055388268
42	0xba92f0a1	-0.0011210629
43	0xbd892ec2	-0.066983715
44	0xbc37141a	-0.011174226
45	0xbd1627a1	-0.036658887
46	0xbc48fab8	-0.012266807
47	0xbdb841f9	-0.08996958
48	0xbc931627	-0.017954899
49	0x3bd124f3	0.0063825785
50	0xbc57d138	-0.01317244
51	0x3b5b58a5	0.0033469584
52	0x3c7adaf9	0.015310996
53	0xbb59f47e	-0.00332573
54	0xbce14487	-0.027498497
55	0xbd0f9dfc	-0.035062775
56	0xbcb88cfd	-0.022528166
57	0xbd3ab675	-0.04558416
58	0xbd24ac46	-0.040203355
59	0xbd41c623	-0.0473081
60	0xbd6ea335	-0.058261115
61	0x3c953914	0.018215694
62	0x3d023468	0.03178826
63	0x3d6718d4	0.056420162
64	0x3bbf5f8b	0.005840247
65	0xbc1fe377	-0.009758822
66	0x3d69baee	0.057063036
67	0xbcce960a	-0.025218029
68	0xbc2127c6	-0.009836143
69	0x3b70348c	0.0036652414
70	0xbc6eefcf	-0.014583542
71	0xbc99a510	-0.018755466
72	0x3d2e8a36	0.042612277
73	0xbdc2245b	-0.094795905
74	0xbc9f080c	-0.019413017
75	0x3cf22fa5	0.029563734
76	0xbd6d7aa6	-0.057978295
77	0xbc9e2884	-0.019306429
78	0x3cf48124	0.029846735
79	0x3a23e2c5	0.0006251748
80	0xba360acc	-0.0006944358
81	0xbd7212ee	-0.059100084
82	0xbc0d256d	-0.00861488
83	0xbd89c133	-0.06726303
84	0xbcf887c1	-0.03033817
85	0x3da51481	0.080605514
86	0xbc22390e	-0.009901298
87	0x3ce398bb	0.027782789
88	0x3d0179ed	0.031610418
89	0xbc71abad	-0.014750403
90	0x3dff353b	0.12461325
91	0x3cd6a052	0.026199494
92	0xbe29289b	-0.16519396
93	0x3d8a645c	0.06757423
94	0x3c669429	0.01407341
95	0xbc3f1e3b	-0.011664922
96	0x3d385a34	0.0450079
97	0x3d031d44	0.03201033
98	0x3dadf612	0.084942
99	0xbe135f42	-0.14391807
100	0xbe163a0b	-0.14670579
101	0xbdc0b0a2	-0.0940869
102	0xbc34a4f3	-0.011025655
103	0xbd0ecb9c	-0.034862146
104	0xbd8a7e45	-0.06762365
105	0x3c8c10f8	0.017097935
106	0xbd6cc0c5	-0.057801027
107	0xbd72fcab	-0.059322994
108	0xbdae2d8a	-0.0850478
109	0xbae993c6	-0.0017820529
110	0x3d60d75b	0.05489288
111	0xbcf1371b	-0.029445222
112	0xbd6585b8	-0.056035727
113	0x3d24940c	0.04018025
114	0xbd9668a9	-0.07344181
115	0xbd42c534	-0.04755135
116	0x3d04922c	0.032365963
117	0xbdf31cf1	-0.118707545
118	0xbdd5df07	-0.1044293
119	0xbdac6e47	-0.08419471
120	0xbdc65c24	-0.09685543
121	0xbdcc885d	-0.09986947
122	0xbd1f635f	-0.038913127
123	0xbdad8bd7	-0.08473938
124	0xbd046486	-0.03232243
125	0xbd7c56b1	-0.061606113
126	0x3cd5c92b	0.0260969
127	0xbc93c8bc	-0.018040054
128	0x3cf3763d	0.029719466
129	0xbcddea16	-0.02708916
130	0xbcb252dd	-0.021768028
131	0x3ca672d0	0.020318419
132	0xbd012b79	-0.0315356
133	0xbb0488e8	-0.0020223204
134	0x3c33a9f7	0.010965816
135	0x3d2eebdc	0.0427054
136	0x3d1a5770	0.037681043
137	0xbb1bfd68	-0.0023802165
138	0x3cc7475d	0.02432602
139	0x3d59cf0c	0.05317597
140	0xbd1bd898	-0.038048357
141	0xbd04efe1	-0.03245533
142	0xbd36dfe6	-0.04464712
143	0x3c6dbda2	0.014510544
144	0xbc75392a	-0.014967242
145	0x3c021e6e	0.007941825
146	0xbd990dfc	-0.074733704
147	0xbda790c9	-0.081819125
148	0xbc8831ba	-0.016625274
149	0xbd7f7d99	-0.06237564
150	0x3d2a16d3	0.041525673
151	0xbba2def3	-0.0049704253
152	0xbd33e019	-0.043914888
153	0x3cdffdaf	0.027342645
154	0xbd0eefea	-0.03489677
155	0xbd798b0e	-0.06092363
156	0x3c1e4935	0.009661009
157	0x3d3a0cd1	0.04542238
158	0x3cd7b04b	0.02632918
159	0x3b47561d	0.0030416318
160	0xbd0dc989	-0.034616027
161	0x3d32a375	0.043612916
162	0xbcac2d6b	-0.02101775
163	0xbc85bdb5	-0.01632581
164	0xbc46457d	-0.012101528
165	0xbc8a31c3	-0.016869431
166	0xbd0fbaa3	-0.0350901
167	0xbd8ac6e2	-0.06776215
168	0xbd74009b	-0.05957089
169	0xbd756d8a	-0.059918918
170	0xbc1d8daf	-0.0096162995
171	0x3b126804	0.002233983
172	0xbd2206b4	-0.039557174
173	0xbcc5b585	-0.024134407
174	0xbbf24fe8	-0.0073947795
175	0xbd070063	-0.032959353
176	0xbd80c090	-0.062867284
177	0xbca41a57	-0.020032091
178	0xbc9d0b84	-0.01917053
179	0xbd9547c7	-0.07289081
180	0x3c8f5b6a	0.017499644
181	0xbd26205b	-0.0405582
182	0xbcac2489	-0.021013515
183	0x3b183d74	0.0023229988
184	0x3a88e2a7	0.0010443524
185	0x3c52109c	0.012821343
186	0x3c87962a	0.016551096
187	0x3cf8ca62	0.030369941
188	0x3cf921aa	0.03041156
189	0xbcc2461f	-0.023715077
190	0xbbc9f829	-0.006163616
191	0xbcb1c618	-0.021700904
192	0x3c55af3c	0.013042267
193	0x3ace4e78	0.0015739938
194	0x3c8f7816	0.017513316
195	0xbd803621	-0.06260324
196	0xbc8bf9cb	-0.017086884
197	0x3c4c9a48	0.012487955
198	0xbde60789	-0.11231906
199	0xbbb9b2a8	-0.0056670494
200	0xbaa96ba2	-0.0012925754
201	0xbd9b59a2	-0.075854555
202	0xbafa3f27	-0.0019092307
203	0x3d7183f9	0.05896375
204	0xbd6fe69c	-0.058569536
205	0xbc67179f	-0.014104753
206	0x3c00f8f9	0.00787186
207	0x3d224009	0.03961185
208	0xbba18c8f	-0.004930086
209	0x3d4704b9	0.04858849
210	0x3c9dbcdf	0.0192551
211	0x3cf4a120	0.029861987
212	0x3c07a80a	0.00827981
213	0xbd5380be	-0.05163645
214	0xbd264c03	-0.040599834
215	0xbc95b236	-0.018273454
216	0x3c76a604	0.01505423
217	0x3cf5f96a	0.030026156
218	0xbd6b289c	-0.057411775
219	0xbd27f77b	-0.0410075
220	0x3d709769	0.058738146
221	0xbcf137eb	-0.02944561
222	0x3ba2bfa4	0.004966693
223	0xbd82b25f	-0.06381678
224	0xbd39331b	-0.045214754
225	0x3d6341d0	0.055482686
226	0x3cf85ce3	0.03031773
227	0x3c8c1b16	0.01710276
228	0xbc0d2f10	-0.008617178
229	0xbd0bd77f	-0.03414106
230	0xbd09264d	-0.033483792
231	0xbd1a10e2	-0.037613757
232	0xbc340b9f	-0.010989099
233	0xbd55215d	-0.05203377
234	0x3ddb94e7	0.1072176
235	0xbc4cee76	-0.012508025
236	0xbe47c107	-0.19507228
237	0x3de055d5	0.10953871
238	0x3ccfbff5	0.025360087
239	0xbdd1ea41	-0.102497585
240	0x3e067086	0.13128862
241	0x3d811d75	0.063044466
242	0x3dca6f54	0.098845154
243	0xbc5b428c	-0.013382565
244	0x3ad93ac8	0.0016573304
245	0x3c1daddf	0.009623974
246	0x3c6983e1	0.014252634
247	0xbc131f69	-0.008979657
248	0xbb097349	-0.0020973256
249	0x3c812cfe	0.015768524
250	0xba62dc34	-0.00086540286
251	0x3b5739eb	0.0032840918
252	0xbbb93293	-0.005651781
253	0xbd456001	-0.04818726
254	0xbd00a0c6	-0.031403325
255	0xbcfaa8bd	-0.030598039

conv3.bias f4 [64]
0	0x3c5f2231	0.013618992
1	0xbe123651	-0.14278533
2	0xbdd155ae	-0.1022142
3	0x3b3a5215	0.0028430272
4	0xbe10f53e	-0.14156052
5	0x3a8fa21a	0.0010958344
6	0x3e2d4b1d	0.16923185
7	0x3dd23bac	0.10265288
8	0xbdcf5314	-0.10123268
9	0xbe249cb8	-0.16075408
10	0xbe246712	-0.16054943
11	0xbd85f1b0	-0.06540239
12	0x3d882c4a	0.066490725
13	0xbdcac83a	-0.099014714
14	0x3ec152a8	0.37758374
15	0x3ab34569	0.0013677302
16	0xbd3b0f84	-0.045669094
17	0x3e8c3173	0.27381477
18	0xbe285fdc	-0.16442817
19	0x3e78d390	0.24299455
20	0xbd22c6f7	-0.03974053
21	0xbe62b179	-0.22138013
22	0xbdcb41df	-0.09924673
23	0xbd2d8306	-0.04236128
24	0xbbe8a8f9	-0.0071002212
25	0xbc33fc06	-0.01098538
26	0xbdc468c6	-0.095902964
27	0x3d410354	0.047122315
28	0xbcc111b0	-0.023568004
29	0xbbe0ad35	-0.0068565854
30	0x3e341c17	0.1758884
31	0xbe4e0d85	-0.20122345
32	0xbe4edac0	-0.20200634
33	0x3e403e8f	0.18773864
34	0xbd6859c8	-0.056726247
35	0x3d3bdbdf	0.045863982
36	0xbe29269c	-0.16518635
37	0xbd805e24	-0.06267956
38	0x3d2b7efd	0.041869152
39	0x3dd8d574	0.10587588
40	0xbd166ba9	-0.036723766
41	0xbe7f7094	-0.24945289
42	0xbe8a23fb	-0.26980576
43	0x3ce47a70	0.027890414
44	0x3de60c9c	0.11232874
45	0xbe437d4e	-0.19090769
46	0x3e958a26	0.2920696
47	0xbe2ad17b	-0.16681473
48	0xbd23ad56	-0.039960228
49	0x3dfa7770	0.12229812
50	0xbe1c12f3	-0.15241604
51	0xbd740c75	-0.059582192
52	0x3dfab5b0	0.122416854
53	0xbde7a6f1	-0.113111384
54	0x3dbdf8c2	0.092759624
55	0xbd7c060e	-0.06152921
56	0xbe117a55	-0.14206822
57	0x3b01347c	0.001971512
58	0xbe13c294	-0.14429694
59	0xbe354765	-0.17703016
60	0xbe1deb97	-0.15421902
61	0xbe3c60b5	-0.18396266
62	0xbe7fedde	-0.24993083
63	0x3ee89659	0.45427206

fc.weight f4 [7, 1536]
0	0xbd913f7f	-0.07092189
1	0xbd41ee40	-0.047346354
2	0xbd9b87a1	-0.075942285
3	0xbda9de88	-0.082943976
4	0xbd8bc44a	-0.068245485
5	0xbd55cd1b	-0.052197557
6	0x3b02593b	0.0019889611
7	0xbca380ff	-0.019958971
8	0xbdaa2a45	-0.083088435
9	0xbe07ba09	-0.1325456
10	0xbd89fc1a	-0.06737538
11	0xbd1cee27	-0.038313057
12	0x3da0ea85	0.07857231
13	0x3e18f7e2	0.1493831
14	0x3cf745fb	0.030184736
15	0xbdbe914d	-0.09305058
16	0x3cff3e8a	0.03115775
17	0xbcf3fa4e	-0.02978244
18	0xbd952395	-0.07282177
19	0xbb71f3a8	-0.0036918912
20	0xbd16f14a	-0.036851205
21	0xbd6e494f	-0.05817538
22	0x3d9dadb5	0.076991476
23	0x3c94e6d5	0.018176476
24	0xbd23726c	-0.039904043
25	0x3c2462ec	0.01003335
26	0x3d45b7a9	0.048270855
27	0x3d268516	0.040654264
28	0x3d0f9992	0.035058565
29	0x3916b68e	0.00014373122
30	0xbc308bbb	-0.010775502
31	0xbd3593f4	-0.044330552
32	0x3b911517	0.004427563
33	0x3da78294	0.08179203
34	0x3d8f2dca	0.069911554
35	0x3d424dc6	0.04743745
36	0x3cf41fa0	0.029800236
37	0x3d19ae87	0.037519958
38	0x3cb0cfb7	0.021583421
39	0x3d47fecb	0.048826974
40	0x3c502e27	0.012706316
41	0x3d8a5db0	0.06756151
42	0x3cb1b779	0.021693932
43	0x3cdd3f81	0.02700782
44	0x3d8048f8	0.06263918
45	0x3d32862b	0.043584984
46	0x3cdcef7c	0.026969664
47	0x3d21f101	0.03953648
48	0x3c1c0498	0.00952258
49	0xbccf3e37	-0.025298221
50	0xbce65e97	-0.028121276
51	0xbc85e6ac	-0.016345344
52	0x3be564fd	0.007000564
53	0x3d1b8137	0.037965026
54	0x3d172807	0.036903407
55	0xbd21c0f7	-0.039490666
56	0xbbfb231b	-0.007664097
57	0xbc968650	-0.018374592
58	0x3ca4e033	0.020126438
59	0x38bbbfc9	8.9525776e-05
60	0x3bda7b57	0.0066675353
61	0xbd018f34	-0.03163071
62	0x3cfa3d68	0.030546859
63	0x3d0fc688	0.035101444
64	0x3d130e88	0.03590253
65	0xbc721484	-0.014775399
66	0xbd1f5dc9	-0.0389078
67	0x3d21f4dc	0.039540157
68	0xbcad2b9f	-0.021138964
69	0x3d086bd0	0.033305943
70	0x3bf7507a	0.0075474354
71	0xbb80b849	-0.0039282185
72	0xbc59fedd	-0.013305393
73	0x3d7c244f	0.061558064
74	0xbd2525df	-0.04031932
75	0xbc91b7b7	-0.017787797
76	0x3cf821d2	0.030289564
77	0x3d6c99d1	0.05776388
78	0x3d16034a	0.03662423
79	0x3d85d434	0.06534615
80	0x3d1804b0	0.037113845
81	0x3b1102cf	0.0022126918
82	0xbd44bf44	-0.048033968
83	0x3bd05747	0.0063580605
84	0x3c76199a	0.015020752
85	0x3a95d24a	0.0011430469
86	0xbc43bdf1	-0.011947141
87	0x3d14a085	0.036285896
88	0xbb9ea9ee	-0.0048420345
89	0x3cf42944	0.029804833
90	0x3ccab651	0.024745138
91	0xbcd9fa59	-0.026608633
92	0x3aa8ea87	0.0012887277
93	0xbc17ccdc	-0.009265151
94	0xbd3dccf1	-0.046338025
95	0x3bcf5190	0.0063268617
96	0x3c4c8de6	0.012485003
97	0x3b8e907b	0.0043507195
98	0xbd51bd4b	-0.051205914
99	0xbdbade4c	-0.09124431
100	0xbd37cfe3	-0.04487599
101	0xbd047f67	-0.032348063
102	0x3e05d93d	0.13071151
103	0x3d113437	0.035450187
104	0xbcebf3df	-0.02880281
105	0xbdc0f46a	-0.09421618
106	0xbc540450	-0.012940481
107	0xbd711b31	-0.058863822
108	0xbd2dbd31	-0.042416755
109	0xbca2ec56	-0.019888084
110	0xbd7af1f6	-0.06126591
111	0xbde97237	-0.11398738
112	0x3d601485	0.05470707
113	0x3d0293f8	0.031879395
114	0xbd3a5c22	-0.04549802
115	0xbce50f40	-0.027961373
116	0xbca6e541	-0.020372989
117	0xbcdfc5e3	-0.02731604
118	0x3c91eb76	0.017812472
119	0x3cf46729	0.029834347
120	0x3d1d6420	0.038425565
121	0x3d7dea60	0.061991096
122	0xbc6e1acf	-0.014532759
123	0xbbb2f317	-0.0054611075
124	0xbd436e69	-0.047712717
125	0x3d1b969a	0.03798542
126	0x3d09abca	0.033611096
127	0x3cf29e3d	0.02961647
128	0xbad78f61	-0.0016445928
129	0xbdb6083a	-0.08888288
130	0xbda86c7a	-0.08223815
131	0x3b5fe8b4	0.0034165801
132	0xbd401917	-0.046898928
133	0x3d9c6dba	0.07638116
134	0xbd313f44	-0.043273225
135	0xbde17486	-0.11008553
136	0xbd1fb883	-0.038994323
137	0xbbbfa1b5	-0.0058481344
138	0x3c5e8e71	0.013583765
139	0x3d4d114c	0.050065324
140	0x3d40483c	0.046943888
141	0x39c38e41	0.00037299286
142	0x3c785ef0	0.015159354
143	0x3c37aa4c	0.0112100355
144	0xbd4d990b	-0.05019478
145	0x3db5c52e	0.088755
146	0xbbae32d0	-0.005316116
147	0xbd95cdc6	-0.07314639
148	0xbd258e57	-0.04041895
149	0xbbabddba	-0.0052449377
150	0x3d31c49a	0.043400384
151	0x3df0fdf7	0.1176719
152	0x3e15315b	0.14569609
153	0x3c876de9	0.016531901
154	0x3d5792e8	0.052630335
155	0x3c59647b	0.013268585
156	0xbd582386	-0.052768253
157	0xbbb9d31f	-0.0056709195
158	0x3d38228b	0.044954818
159	0x3cc29e53	0.023757135
160	0x3d6342d5	0.055483658
161	0x3d8a6733	0.06757965
162	0x3d6104be	0.054936163
163	0x3cfe0ad9	0.031011032
164	0xbd52e36d	-0.05148642
165	0xbd8e831d	-0.069586016
166	0xbd444fc9	-0.04792765
167	0xbbcc94c9	-0.0062433225
168	0x3e038620	0.12844133
169	0x3d8ee3bd	0.069770314
170	0xbba9e9a0	-0.005185321
171	0x3bd87100	0.0066052675
172	0x3d32ebfc	0.043682083
173	0x3d304b70	0.043040693
174	0x3d016916	0.03159436
175	0x3caf629d	0.021409327
176	0x3d9e02cc	0.07715377
177	0x3d31d0b8	0.04341194
178	0x3cdd39a0	0.027005017
179	0xbdc0ac9c	-0.094079226
180	0x3d3f2aab	0.04667155
181	0xbc160a1a	-0.009157682
182	0x3dc794d6	0.09745185
183	0x3d9b9dc5	0.075984515
184	0xbc086722	-0.00832537
185	0xbd2299dd	-0.039697517
186	0x3c9661a5	0.018357107
187	0xbd5b5bb4	-0.05355425
188	0x3d8cca7a	0.06874557
189	0x3d576ced	0.052594114
190	0x3d751ea8	0.05984369
191	0xbc4248c6	-0.011858171
192	0x3c3cc076	0.011520496
193	0x3c99db09	0.018781202
194	0x3c6b0f97	0.014346979
195	0xba8fdb6f	-0.001097543
196	0x3d0773df	0.033069488
197	0xbda2f8b1	-0.0795759
198	0x3d56551f	0.05232727
199	0xbaaa2bc0	-0.0012983009
200	0xbdf7c019	-0.120971866
201	0xbcf807db	-0.030277183
202	0x3c58b44e	0.013226582
203	0x3c968cd1	0.018377693
204	0xbd87f6a0	-0.06638837
205	0xbdc27860	-0.09495616
206	0xbe150cbe	-0.14555642
207	0xbd9836b8	-0.07432312
208	0xbce55a7a	-0.027997244
209	0x3ca29c82	0.01985002
210	0xbcb2da1f	-0.021832524
211	0xbd2294c7	-0.039692666
212	0xbd7a4b94	-0.061107233
213	0xbc8410b5	-0.016121248
214	0xbb8ef401	-0.0043625836
215	0x3c6fd490	0.014638081
216	0xbd027307	-0.03184798
217	0xbcc85422	-0.02445418
218	0x3c9956d5	0.018718163
219	0x3d8b4466	0.06800155
220	0x3c955521	0.01822907
221	0xbd8237af	-0.06358277
222	0x3c22fe77	0.009948364
223	0x3cd0fe69	0.025511937
224	0xbd39dfaf	-0.045379337
225	0x3d650bc3	0.05591942
226	0xbd364953	-0.04450352
227	0xbd5b929a	-0.053606607
228	0x3c637b3f	0.013884365
229	0x3db5241a	0.088447765
230	0x3d38d73a	0.04512713
231	0xbd8ae1d9	-0.06781358
232	0x3d1133e1	0.035449866
233	0x3cffbfce	0.03121939
234	0x3c170533	0.009217548
235	0x3d23d2e9	0.03999606
236	0x3d30503a	0.04304526
237	0xbd438a68	-0.047739416
238	0x3d9ca5e3	0.07648828
239	0x3d511cdc	0.051052913
240	0xbd53c9a0	-0.051705956
241	0x3ccfb265	0.02535362
242	0x3d5de36e	0.054171972
243	0xbaf94720	-0.0019018389
244	0x3c557572	0.013028489
245	0xbd3778a1	-0.044792775
246	0xbd60394b	-0.05474214
247	0x3c903a7a	0.017606009
248	0xbc5a086e	-0.013307674
249	0xbb3b75fe	-0.0028604264
250	0x3d8918f7	0.06694215
251	0xbd6d3170	-0.057908475
252	0x3ce460de	0.027878221
253	0x3e71a12c	0.23596638
254	0xbde35e08	-0.111019194
255	0x3d689e41	0.056791548

fc.bias f4 [7]
0	0xbd435bf7	-0.047695126
1	0x3e9a27e9	0.30108574
2	0x3f1892fb	0.59599274
3	0xbe5fde43	-0.2186213
4	0xbf463025	-0.7741721
5	0x3f107614	0.5643017
6	0xbee1341a	-0.43985063
