model.pth (torch, 271080 bytes, 8 tensors)

conv1.weight f4 [32, 3, 3, 3]
0.21175219 -0.084661044 0.090398125 0.19987386 -0.13678062 -0.03154103 -0.13821508 0.13908073
0.049388215 -0.10058894 -0.015047559 0.12440686 0.110239394 -0.18361652 0.059231292 0.12279831
-0.07649665 0.08121093 -0.20501757 -0.12040176 0.06273879 -0.10338065 -0.040448353 -0.16247313
-0.103289954 -0.02691921 -0.11912621 0.12862343 -0.1891516 0.0076143355 -0.17094857 0.12385402
0.1666757 -0.1372874 0.07054677 0.10628776 0.10309432 -0.08103011 0.18566407 -0.05778499
-0.1621592 0.18371081 -0.09176523 0.016247248 -0.07719162 -0.06612795 -0.053104635 0.03238259
-0.11466284 0.04775714 0.1727158 0.0995084 -0.019159857 -0.15042995 -0.16704734 -0.0073139276
0.05272202 0.04063048 0.0026031774 0.10509691 0.07829174 -0.11563362 -0.11442032 -0.031512246
0.060706392 -0.10225038 -0.055806145 0.102147095 0.0023494796 0.12285822 0.16745786 -0.115029454
-0.028717948 -0.0628063 0.098168395 0.042973578 -0.0674241 0.01773233 -0.055105377 0.008726228
-0.062864 -0.21793284 -0.17325366 0.0076465523 -0.25576806 -0.01522946 -0.25280535 -0.33252513
-0.25769842 0.037891004 0.22293656 0.06250905 0.089612156 0.17967024 -0.08046329 0.36421695
0.064073786 0.042505253 0.08429022 0.2595258 0.24091932 -0.024061328 -0.098250695 -0.0922531
0.32631552 -0.16118687 -0.3277141 0.14933829 0.12508343 -0.16073254 0.0037783026 0.1531852
-0.10525425 -0.13057713 -0.06989826 -0.082203805 -0.1420298 0.17539631 0.30969217 0.18160294
0.27242035 0.29253823 0.13026948 0.28749603 -0.02803301 0.10333541 -0.2187144 -0.15659484
-0.31882095 0.17895588 -0.13388413 -0.310771 0.14515519 -0.3381984 -0.3014287 -0.06770361
-0.18938443 -0.1474952 0.096188836 -0.020329645 0.060109068 0.055949282 -0.10642206 0.1670262
0.10418554 -0.0427952 0.16319208 0.098670654 0.16614437 0.19855092 0.25332487 0.1321048
0.14433074 0.0023691265 -0.03893875 0.0890196 -0.030974884 0.0634681 0.1799208 0.013494623
-0.19051209 -0.1216414 -0.2269266 0.002772447 -0.13858517 0.021714672 -0.13437952 -0.21957976
-0.06950526 -0.34791642 0.02678006 0.16542321 0.29024443 0.17728075 0.35340452 0.10253674
0.32531598 0.07370094 -0.16594408 0.45619592 -0.3068498 -0.19532475 0.21318619 -0.15177402
-0.1368965 -0.10815235 -0.042494573 -0.4287234 0.20084776 0.111943804 -0.19538736 -0.1386492
-0.12648247 0.19583979 -0.17923413 0.14706019 0.08256461 0.0812788 -0.27682137 -0.35018095
-0.3213978 0.016525947 -0.11052117 -0.22320648 0.03787101 0.24313524 0.24489632 0.049911913
-0.3003936 -0.08355251 -0.029890088 0.20794295 0.23199035 0.24169023 0.16786745 0.30211088
-0.0059222304 0.047422916 -0.15954983 -0.07283592 0.022143302 -0.06191481 0.17747672 0.1720529
0.13472427 0.22106905 0.25228247 -0.06267396 0.14668344 0.14074583 0.18644652 0.2869583
-0.04912338 0.28029692 -0.21959068 -0.055345163 -0.15307009 0.13506399 -0.07278754 -0.0908433
0.049699668 -0.10229723 -0.16279152 -0.02104483 -0.19008306 -0.33243573 -0.15257552 -0.15982528
-0.24145357 -0.15861134 -0.25864878 0.026592754 -0.27100718 0.08982703 0.059523854 -0.17183268
00000000: 91d5 583e c562 adbd a722 b93d bcab 4c3e
00000010: 3810 0cbe 2b31 01bd 4188 0dbe 2e6b 0e3e
00000020: 4c4b 4a3d 9301 cebd 098a 76bc 06c9 fe3d
00000030: 31c5 e13d f805 3cbe 839c 723d ae7d fb3d
00000040: 47aa 9cbd eb51 a63d 20f0 51be 3395 f6bd
00000050: 327d 803d 3cb9 d3bd 2cad 25bd 5b5f 26be
00000060: af89 d3bd ad85 dcbc 71f8 f3bd dcb5 033e
00000070: f5b0 41be ad81 f93b 240d 2fbe 2da7 fd3d
00000080: 09ad 2a3e 1195 0cbe d37a 903d 66ad d93d
00000090: 1d23 d33d 1df3 a5bd b91e 3e3e f4af 6cbd
000000a0: 100d 26be b01e 3c3e 69ef bbbd f318 853c
000000b0: a416 9ebd 176e 87bd 3f84 59bd 9ba3 043d
000000c0: 5ad4 eabd fe9c 433d 69dc 303e 0fcb cb3d
000000d0: 22f5 9cbc 4f0a 1abe 750e 2bbe aca9 efbb
000000e0: 0bf3 573d 256c 263d 129a 2a3b 0c3d d73d
000000f0: 6b57 a03d 52d1 ecbd 3355 eabd fc12 01bd
00000100: 44a7 783d a668 d1bd fc94 64bd 7f32 d13d
00000110: baf9 193b 179d fb3d 137a 2b3e 9094 ebbd
00000120: e741 ebbc 97a0 80bd 830c c93d 1005 303d
00000130: a615 8abd 6443 913c 2db6 61bd 74f8 0e3c
00000140: d7be 80bd c929 5fbe 6869 31be ee8f fa3b
00000150: 08f4 82be fc84 79bc b46f 81be bc40 aabe
00000160: 0cf1 83be 9933 1b3d 7b49 643e bf04 803d
00000170: 9486 b73d 7afb 373e f0c9 a4bd a57a ba3e
00000180: 1e39 833d fd19 2e3d 5aa0 ac3d 91e0 843e
00000190: 8eb3 763e 431c c5bc a937 c9bd 31ef bcbd
000001a0: d412 a73e 2c0e 25be 24ca a7be 23ec 183e
000001b0: df15 003e 1297 24be 669d 773b 95dc 1c3e
000001c0: 8a8f d7bd 03b6 05be d226 8fbd 785a a8bd
000001d0: 4370 11be 179b 333e f98f 9e3e 1ff6 393e
000001e0: ae7a 8b3e 92c7 953e 5d65 053e ae32 933e
000001f0: 7ca5 e5bc 84a1 d33d abf6 5fbe 665a 20be
00000200: 803c a3be 3640 373e ec18 09be 601d 9fbe
00000210: 90a3 143e 5728 adbe dd54 9abe 31a8 8abd
00000220: feed 41be fb08 17be a7fe c43d 5b8a a6bc
00000230: ed34 763d 132b 653d cff3 d9bd eb08 2b3e
00000240: 3a5f d53d 054a 2fbd d31b 273e d713 ca3d
00000250: c021 2a3e ef50 4b3e ccb3 813e 7b46 073e
00000260: 70cb 133e 5943 1b3b 3d7e 1fbd e84f b63d
00000270: 0abf fdbc 90fb 813d 283d 383e 8d18 5d3c
00000280: 9a15 43be 201f f9bd 725f 68be f1b1 353b
00000290: 45e9 0dbe f8e2 b13c c99a 09be 84d9 60be
000002a0: c658 8ebd 1a22 b2be db61 db3c b464 293e
000002b0: eb9a 943e 1689 353e 70f1 b43e c8fe d13d
000002c0: d18f a63e 85f0 963d 3fed 29be 8392 e93e
000002d0: 6b1b 9dbe 3603 48be 7b4d 5a3e a66a 1bbe
000002e0: 992e 0cbe fb7e ddbd ca0e 2ebd a281 dbbe
000002f0: 09ab 4d3e cb42 e53d a013 48be 0efa 0dbe
00000300: 9f84 01be 3a8a 483e 2789 37be f296 163e
00000310: a217 a93d 8075 a63d 88bb 8dbe eb4a b3be
00000320: 418e a4be 6c61 873c ec58 e2bd 3d90 64be
00000330: a21e 1b3d 72f8 783e 1ac6 7a3e 6f70 4c3d
00000340: 31cd 99be 941d abbd 0fdc f4bc ffee 543e
00000350: e18e 6d3e a57d 773e 72e5 2b3e 47ae 9a3e
00000360: 450f c2bb 883e 423d 0861 23be 002b 95bd
00000370: df65 b53c 629a 7dbd 75bc 353e a32e 303e
00000380: 29f5 093e ed5f 623e 2b2b 813e 355b 80bd
00000390: 2f34 163e ad1f 103e d6eb 3e3e 33ec 923e
000003a0: 9935 49bd 1483 8f3e 61dc 60be 9cb1 62bd
000003b0: 68be 1cbe 374e 0a3e a211 95bd 0d0c babd
000003c0: e191 4b3d 3681 d1bd d2b2 26be 3566 acbc
000003d0: 22a5 42be 0435 aabe c23c 1cbe 3da9 23be
000003e0: 9b3f 77be 036b 22be 9d6d 84be 0cd9 d93c
000003f0: 74c1 8abe 3cf7 b73d 49cf 733d e8f4 2fbe

conv1.bias f4 [32]
-0.16690257 -0.12758067 -0.13553672 0.82283604 0.31144023 -0.09244275 0.60006696 -0.06388091
-0.07208536 0.98553723 -0.08287526 -0.01778931 -0.03637356 -0.15761161 0.19529557 -0.5491707
-0.55580163 0.112555034 0.0408648 -0.04124628 0.07260216 -0.20166132 -0.03002565 -0.8109885
-0.31322113 0.20030896 -0.08285955 0.15310559 0.06573358 -0.3700926 -0.10522644 -0.038781367
00000000: 82e8 2abe 82a4 02be 23ca 0abe 62a5 523f
00000010: 1875 9f3e a052 bdbd fd9d 193f ffd3 82bd
00000020: 7da1 93bd 2b4c 7c3f 81ba a9bd e3ba 91bc
00000030: 71fc 14bd f064 21be 90fb 473e 7396 0cbf
00000040: 0449 0ebf 4183 e63d d961 273d dcf1 28bd
00000050: 71b0 943d 4e80 4ebe 5af8 f5bc f19c 4fbf
00000060: 855e a0be cb1d 4d3e 45b2 a9bd b6c7 1c3e
00000070: 549f 863d c77c bdbe f680 d7bd 36d9 1ebd

conv2.weight f4 [64, 32, 3, 3]
0.020264113 0.005581948 -0.0014492155 0.037105158 -0.022580296 0.07321327 -0.04465278 0.004548504
0.0036558383 -0.02799262 -0.04813672 0.00060459547 -0.021535229 -0.00592679 0.04608972 -0.039294627
0.012050451 -0.006673979 -0.009749645 0.033382516 -0.058368433 0.05219592 0.03004022 -0.040836718
0.04766647 -0.045500956 0.026885647 0.0410128 0.029771294 -0.013026631 0.052266132 0.041513447
0.035791878 0.007053306 -0.0978804 -0.060599778 -0.040411685 -0.04692687 0.024870258 0.043835424
0.015827999 0.02457619 0.04853665 0.007433499 0.05452709 0.024445528 0.020966781 0.011047994
0.022173038 -0.050462075 -0.022749014 -0.0050048335 0.011228769 -0.07037482 -0.058508754 -0.007399221
-0.03462846 0.050610725 -0.060825042 -0.009088246 0.010216655 -0.021327356 -0.026520625 0.048728168
-0.04969999 -0.046706043 -0.021222157 -0.034250297 -0.035618965 0.023127306 0.0700126 0.07224715
-0.00063079083 0.022229416 -0.053024273 0.038742494 -0.048084468 -0.057210725 0.025934126 -0.019550167
0.018455788 -0.000842444 -0.075859025 -0.0072171804 0.031709183 -0.032719925 -0.052155104 0.03259373
0.00020069737 0.08029542 0.024536422 0.015772594 -0.04457857 -0.02293008 -0.0014240715 -0.042748567
0.0140375495 0.07178185 -0.0031712595 0.09132352 0.034066338 0.038283646 -0.041475017 -0.055327605
-0.04204761 -0.02147695 -0.09017414 -0.11068771 0.111465134 0.016796507 0.0063463715 0.03632756
0.02598743 -0.02472126 -0.026355926 0.029462252 -0.10887418 0.026072776 -0.052150834 -0.0023708679
-0.0144043425 0.049579002 0.012275716 -0.022266448 0.057254232 -0.05082201 -0.04088317 0.04931542
0.06294193 -0.02090295 0.061837927 0.03716901 0.016388465 0.063015915 0.08893936 0.11363329
0.066118404 -0.018033825 0.022140222 0.039639704 -0.046906002 0.04502068 -0.07935665 -0.15204011
-0.045924086 -0.08761866 -0.061097383 -0.036881085 0.034194954 0.08252078 -0.06554281 0.11029232
0.11431749 -0.055732008 0.023093864 -0.001302098 0.020089997 0.018670479 0.0032640805 -0.021301333
0.037715353 0.032674015 -0.021046259 -0.06575923 -0.06959764 -0.05916222 -0.007451091 0.011196663
-0.075344756 -0.025051463 0.05261899 0.0590871 0.046973977 0.03539112 -0.017997665 0.008996326
0.030301437 -0.022597825 -0.07817776 -0.11047382 -0.100371234 -0.08049546 -0.028292283 -0.0016842921
0.0034184002 0.08007834 0.00930505 0.0044623422 0.025794744 -0.048111785 -0.05305774 -0.003899305
-0.006961457 -0.017196983 0.02169272 -0.030937575 -0.065612175 0.05452374 0.057367254 0.018267697
-0.015978258 -0.012938686 -0.0030077633 0.020057654 -0.04850702 0.063724406 -0.017831352 -0.083137706
-0.060882475 0.009601467 -0.0066504935 0.029862717 0.055013943 0.04031283 0.059092365 0.041164797
-0.07093034 -0.06608192 -0.08457132 -0.044512894 -0.015782533 -0.07810937 -0.095479615 -0.031104915
0.0077364175 -0.07915426 0.002324384 -0.06592911 0.021341989 -0.006076453 0.050924707 0.047878705
0.12972699 0.13358307 -0.03268347 -0.103989206 -0.06072296 -0.07884576 -0.02665617 0.045006506
-0.054694198 0.089043215 0.12896593 -0.012772997 -0.025910288 -0.08139841 -0.07785969 -0.061545484
-0.07452347 0.02010327 0.020125058 0.075562954 0.073659904 0.04157536 -0.042450733 -0.026136205
00000000: ed00 a63c c6e8 b63b 9af3 bdba 94fb 173d
00000010: 50fa b8bc d7f0 953d d5e5 36bd 9e0b 953b
00000020: ca96 6f3b c750 e5bc 022b 45bd b77d 1e3a
00000030: a66a b0bc 8535 c2bb 93c8 3c3d 67f3 20bd
00000040: 416f 453c 65b1 dabb fabc 1fbc 1bbc 083d
00000050: bd13 6fbd 64cb 553d e816 f63c 6744 27bd
00000060: eb3d 433d 365f 3abd 4a3f dc3c 0afd 273d
00000070: eee2 f33c a76d 55bc 0315 563d 010a 2a3d
00000080: 819a 123d 6b1f e73b 8575 c8bd 7937 78bd
00000090: b986 25bd 6436 40bd b6bc cb3c c68c 333d
000000a0: b8a9 813c 0254 c93c 5ece 463d b694 f33b
000000b0: cc57 5f3d fd41 c83c 87c2 ab3c a502 353c
000000c0: 3ba4 b53c 52b1 4ebd 245c babc 96ff a3bb
000000d0: dff8 373c ac20 90bd e0a6 6fbd 2a75 f2bb
000000e0: 92d6 0dbd 314d 4f3d ae23 79bd dee6 14bc
000000f0: c263 273c b5b6 aebc c841 d9bc 3097 473d
00000100: 3792 4bbd d64e 3fbd 17da adbc 0a4a 0cbd
00000110: 31e5 11bd 7a75 bd3c c462 8f3d 50f6 933d
00000120: a85b 25ba 771a b63c fb2f 59bd 73b0 1e3d
00000130: 38f4 44bd cb55 6abd ce73 d43c ac27 a0bc
00000140: 9830 973c 76d7 5cba fa5b 9bbd 197e ecbb
00000150: 7de1 013d 5405 06bd 97a0 55bd 0181 053d
00000160: 4a72 5239 ed71 a43d 9b00 c93c 8735 813c
00000170: 0598 36bd ddd7 bbbc e9a7 baba 1f19 2fbd
00000180: c0fd 653c 5d02 933d e8d4 4fbb d307 bb3d
00000190: 2589 0b3d 50cf 1c3d b5e1 29bd 339f 62bd
000001a0: 1d3a 2cbd 6ef0 afbc 38ad b8bd 3db0 e2bd
000001b0: d547 e43d d498 893c 39f5 cf3b 35cc 143d
000001c0: 97e3 d43c 3d84 cabc 62e8 d7bc d25a f13c
000001d0: 6df9 debd 9396 d53c 1d9c 55bd 9060 1bbb
000001e0: 3100 6cbc 5a13 4b3d 1620 493c 2068 b6bc
000001f0: 6a83 6a3d bd2a 50bd 1c75 27bd f7fe 493d
00000200: b3e7 803d aa3c abbc c449 7d3d 883e 183d
00000210: 1a41 863c 7d0e 813d d725 b63d 92b8 e83d
00000220: 1669 873d acbb 93bc 695f b53c 3e5d 223d
00000230: 8220 40bd 9b67 383d bd85 a2bd 67b0 1bbe
00000240: e51a 3cbd 6971 b3bd 4041 7abd 9f10 17bd
00000250: 0210 0c3d a800 a93d 4f3b 86bd f1e0 e13d
00000260: 4a1f ea3d 3f47 64bd 582f bd3c 29ab aaba
00000270: c793 a43c d5f2 983c 2fea 553b 2280 aebc
00000280: 6a7b 1a3d 30d5 053d 3469 acbc c6ac 86bd
00000290: 3589 8ebd 1654 72bd 4828 f4bb 3572 373c
000002a0: 5a4e 9abd ba38 cdbc 0387 573d 5105 723d
000002b0: c967 403d 47f6 103d d76f 93bc 5365 133c
000002c0: b83a f83c 131f b9bc a91b a0bd 1940 e2bd
000002d0: 6f8f cdbd ceda a4bd 38c5 e7bc 77c3 dcba
000002e0: 3d07 603b 1d00 a43d 3574 183c d738 923b
000002f0: 804f d33c dd10 45bd 1353 59bd 7b8b 7fbb
00000300: ef1c e4bb b0e0 8cbc eeb4 b13c cc70 fdbc
00000310: ad5f 86bd 4954 5f3d edf9 6a3d 23a6 953c
00000320: d6e4 82bc c8fc 53bc e51d 45bb f34f a43c
00000330: 4caf 46bd f181 823d 0e13 92bc 1a44 aabd
00000340: e75f 79bd 794f 1d3c 62ec d9bb a8a2 f43c
00000350: 4d56 613d 111f 253d d60a 723d 6b9c 283d
00000360: ed43 91bd f555 87bd ba33 adbd 2753 36bd
00000370: 5f4a 81bc cef7 9fbd d18a c3bd bccf febc
00000380: c681 fd3b a11b a2bd b154 183b d705 87bd
00000390: 65d5 ae3c fb1c c7bb 6d96 503d 761c 443d
000003a0: 27d7 043e 00ca 083e 1adf 05bd 4bf8 d4bd
000003b0: a3b8 78bd e379 a1bd 0a5e dabc be58 383d
000003c0: 0607 60bd 4a5c b63d a50f 043e d545 51bc
000003d0: d041 d4bc 36b4 a6bd e774 9fbd 1e17 7cbd
000003e0: c39f 98bd 9daf a43c 4edd a43c c0c0 9a3d
000003f0: 01db 963d ed4a 2a3d d2e0 2dbd 981b d6bc

conv2.bias f4 [64]
0.11679923 -0.014750154 -0.09834246 -0.16635884 0.13169885 -0.09330055 0.034912266 0.0637285
0.1141534 -0.17346421 -0.010883326 -0.06212847 -0.023351934 0.057230875 -0.048737384 -0.023558363
-0.054620296 -0.09857745 -0.14969745 -0.024954531 -0.010066312 -0.07959492 -0.051949006 -0.057276413
0.0035798813 0.09542824 -0.0387346 0.04546525 0.07160782 -0.066409945 0.0095615955 -0.114605
0.006112035 -0.21773063 -0.10181831 -0.021762226 0.009596734 -0.2002652 -0.079452 -0.006547604
0.02450983 -0.026068252 0.07116356 -0.027934158 -0.016361274 -0.01781684 0.0015563933 -0.14894168
0.056523424 -0.06539612 0.0645713 -0.043061506 -0.014423872 -0.10602284 0.056859076 -0.16459163
-0.060169607 0.077554524 -0.04277838 -0.069106944 0.034394752 -0.08706153 -0.12087152 -0.06263205
00000000: 6f34 ef3d a1aa 71bc c667 c9bd f959 2abe
00000010: 10dc 063e 5c14 bfbd 2a00 0f3d 1684 823d
00000020: 42c9 e93d 9aa0 31be fa4f 32bc 6c7a 7ebd
00000030: 8e4c bfbc ec6a 6a3d daa0 47bd 78fd c0bc
00000040: 88b9 5fbd f9e2 c9bd 4a4a 19be 726d ccbc
00000050: 2ced 24bc a902 a3bd 7bc8 54bd ac9a 6abd
00000060: 719c 6a3b e26f c33d 2ca8 1ebd c539 3a3d
00000070: 1fa7 923d f001 88bd 3da8 1c3c 07b6 eabd
00000080: 7747 c83b c7f4 5ebe 1e86 d0bd b246 b2bc
00000090: 9f3b 1d3c 5212 4dbe bbb7 a2bd 498d d6bb
000000a0: d7c8 c83c 168d d5bc 33be 913d 2dd6 e4bc
000000b0: 1408 86bc 9ff4 91bc e5ff cb3a 2b84 18be
000000c0: 1b85 673d 67ee 85bd f53d 843d 4361 30bd
000000d0: 1b52 6cbc 8122 d9bd 10e5 683d b58a 28be
000000e0: 6874 76bd e8d4 9e3d 6238 2fbd f187 8dbd
000000f0: 83e1 0c3d 514d b2bd 7d8b f7bd 3b45 80bd

conv3.weight f4 [64, 64, 3, 3]
-0.046170466 0.031596728 0.010975413 0.059722614 0.06061918 -0.011509623 0.033495255 -0.00085618295
-0.013308727 -0.0035000276 0.0128261885 0.029457415 0.004715416 -0.008264876 -0.035959147 0.028865311
0.03908871 0.037695024 0.026710263 0.011641383 0.034852307 0.030225221 -0.024899263 0.01821512
-0.012404186 -0.02923686 -0.008088628 0.013046664 -0.017771285 0.018252358 0.0064280657 -0.005559025
0.024609124 -0.043903023 -0.034037285 0.011753878 -0.035939246 -0.007890691 -0.0019698595 0.002003408
-0.018430213 -0.010967851 -0.02982421 -0.02597998 -0.033800337 0.03771285 -0.010749017 -0.013618799
-0.025148818 -0.02107855 0.03853301 -0.03877522 -0.04381744 -0.052399352 -0.0043608104 -0.008989177
0.0009530468 -0.05233098 0.02595888 0.031891067 -0.022623146 -0.022817966 -0.03456566 -0.03378233
0.002559771 -0.0058232374 -0.019227663 -0.0054630525 0.027699288 0.012441931 0.046076562 0.006037418
-0.03611131 -0.034290686 -0.039641146 -0.0027334199 -0.012424975 -0.01801492 0.010712157 0.03363239
0.03367714 0.031677984 -0.04349792 0.026704565 -0.028371437 0.0010214489 0.03756251 0.0372811
-0.031409834 0.016860116 -0.012215349 0.03153265 0.015728837 -0.034162622 -0.028661197 0.021513388
0.004711142 -0.017340478 -0.0077526025 0.06249961 -0.006977516 0.023752373 0.022598157 0.009848763
0.012816402 -0.03764354 0.020768153 0.024009513 -0.017171366 0.0095230965 -0.0008899726 0.008943405
0.02034871 0.003847852 -0.00044861497 0.008678993 0.03376336 0.026752613 -0.024309885 -0.0340859
0.016001025 -0.015709225 -0.028608564 -0.0038674325 -0.022819538 -0.013774932 -0.018503223 -0.023219403
0.018956637 -0.001322216 0.0034924091 0.024562601 0.011425145 0.023153428 -0.039510924 0.0004968908
-0.04216993 0.029393267 -0.011940466 0.0027167043 0.07457861 0.025914421 0.0055956803 -0.02749717
0.030167049 -0.011318856 -0.02495041 -0.02220636 0.034650244 0.009990886 0.0043250634 0.031973775
0.03594627 0.052575156 0.03516109 0.007817136 -0.028128685 0.04622908 -0.0073413057 -0.040379196
-0.009112453 0.019612988 -0.034279335 -0.0083898315 0.055964403 0.0074948147 0.0214702 -0.01607212
0.015441359 -0.027134024 -0.0039236294 -0.0044756075 0.0033168246 0.019792361 -0.013223647 -0.038329326
-0.02978285 -0.03189767 -0.009334998 -0.018899167 -0.036312483 -0.04924965 -0.02585665 -0.034751296
-0.03512728 -0.029140402 0.0016011143 -0.01742911 -0.004611466 0.00067218806 0.03925791 -0.037453547
0.011058014 0.027976047 -0.03214217 -0.03469032 -0.054105394 -0.024213433 -0.0061299433 0.008904473
0.029531421 -0.016104834 0.048619267 0.039098658 -0.024948936 0.024307644 0.036896616 -0.0049157655
-0.040721346 0.035341315 -0.020365568 -0.053047378 -0.016398327 0.008472733 0.011901359 -0.051413275
0.011136857 0.026881896 0.017460564 0.039709046 -0.010819213 -0.021976672 -0.00057805475 0.012245205
-0.012237604 -0.038154747 0.0053026113 0.021341646 0.053776406 -0.019389074 0.06507067 -0.014183823
0.03346921 -0.042744957 0.018112628 -0.031264756 -0.04615784 -0.017838068 -0.031031217 0.001619362
-0.0014732773 0.030647706 -0.02919075 -0.03237751 -0.037345037 0.04738414 -0.030003991 0.009672277
0.04422925 -0.034139376 0.015027275 0.043288764 -0.006277387 -0.016634032 -0.014052654 0.025359467
00000000: 3e1d 3dbd 926b 013d 38d2 333c b39f 743d
00000010: d14b 783d dc92 3cbc 5232 093d 7771 60ba
00000020: d90c 5abc b860 65bb ef24 523c ad50 f13c
00000030: c783 9a3b 6769 07bc e649 13bd f276 ec3c
00000040: 7c1b 203d 1966 1a3d 7bcf da3c 80bb 3e3c
00000050: 4bc1 0e3d e29a f73c 8af9 cbbc e037 953c
00000060: ed3a 4bbc 2482 efbc 2a86 04bc adc1 553c
00000070: 1695 91bc f885 953c 86a2 d23b 7b28 b6bb
00000080: 1399 c93c a8d3 33bd ae6a 0bbd 5693 403c
00000090: 0835 13bd f547 01bc c218 01bb 9c4b 033b
000000a0: f5fa 96bc 80b2 33bc e751 f4bc f8d3 d4bc
000000b0: 3972 0abd ca78 1a3d a51c 30bc 6221 5fbc
000000c0: e504 cebc ecac acbc cad4 1d3d c4d2 1ebd
000000d0: ea79 33bd b4a0 56bd 21e5 8ebb 5747 13bc
000000e0: e3d5 793a 0259 56bd b8a7 d43c 35a0 023d
000000f0: 2d54 b9bc beec babc b994 0dbd 575f 0abd
00000100: d5c1 273b dbd0 bebb 5583 9dbc 6803 b3bb
00000110: 9ee9 e23c 3ed9 4b3c c7ba 3c3d 88d5 c53b
00000120: 74e9 13bd 6474 0cbd c15e 22bd 2d23 33bb
00000130: 1f92 4bbc 0794 93bc 0b82 2f3c 1ec2 093d
00000140: 0af1 093d c6c0 013d e02a 32bd 88c3 da3c
00000150: 376b e8bc 23e2 853a 26db 193d 11b4 183d
00000160: 99a7 00bd 3a1e 8a3c e322 48bc 6128 013d
00000170: c3d9 803c 1bee 0bbd e3ca eabc d83c b03c
00000180: ec5f 9a3b 9e0d 8ebc 8b09 febb 97ff 7f3d
00000190: a6a3 e4bb 5694 c23c c51f b93c b55c 213c
000001a0: e3fb 513c 1d30 1abd f921 aa3c 99af c43c
000001b0: f7aa 8cbc c306 1c3c 0d4d 69ba 5c87 123c
000001c0: 56b2 a63c 3e2c 7c3b 1534 ebb9 5632 0e3c
000001d0: 734b 0a3d 4c28 db3c 8625 c7bc a89d 0bbd
000001e0: 9514 833c a2b0 80bc 825c eabc c074 7dbb
000001f0: 0af0 babc 41b0 61bc 1294 97bc 9e36 bebc
00000200: f34a 9b3c 354e adba e7e0 643b 8237 c93c
00000210: 8830 3b3c 42ac bd3c 35d6 21bd c741 023a
00000220: 60ba 2cbd 26ca f03c f2a1 43bc bc0a 323b
00000230: acbc 983d 7b4a d43c f85b b73b bf41 e1bc
00000240: e320 f73c b972 39bc cd64 ccbc 1dea b5bc
00000250: 6aed 0d3d d0b0 233c 43b9 8d3b eff6 023d
00000260: 653c 133d 0c59 573d 1305 103d 7213 003c
00000270: 216e e6bc b45a 3d3d 568f f0bb a864 25bd
00000280: 664c 15bc 6bab a03c 7d68 0cbd 8175 09bc
00000290: ee3a 653d 1097 f53b 46e2 af3c aea9 83bc
000002a0: c1fd 7c3c 2c48 debc ca91 80bb 1ea8 92bb
000002b0: 155f 593b 9723 a23c ffa7 58bc 36ff 1cbd
000002c0: 2afb f3bc 22a7 02bd d2f1 18bc 6dd2 9abc
000002d0: 66bc 14bd 00ba 49bd 53d1 d3bc 6057 0ebd
000002e0: 9fe1 0fbd dab7 eebc 7bdc d13a 7ec7 8ebc
000002f0: c81b 97bb c735 303a e7cc 203d e468 19bd
00000300: ac2c 353c 062e e53c 82a7 03bd 7017 0ebd
00000310: 9e9d 5dbd 405b c6bc b1dd c8bb 11e4 113c
00000320: e1eb f13c 49ee 83bc ff24 473d ea25 203d
00000330: b661 ccbc d320 c73c e820 173d 6e14 a1bb
00000340: 6dcb 26bd 0ec2 103d b1d5 a6bc 3548 59bd
00000350: c955 86bc 38d1 0a3c ebfd 423c ba96 52bd
00000360: 5d77 363c 6c37 dc3c 7509 8f3c f4a5 223d
00000370: 1243 31bc 6c08 b4bc 9988 17ba 1da0 483c
00000380: 3b80 48bc 2748 1cbd 87c1 ad3b add4 ae3c
00000390: a644 5c3d d6d5 9ebc c543 853d 4463 68bc
000003a0: 0317 093d 5615 2fbd ef60 943c 790f 00bd
000003b0: 0110 3dbd 2421 92bc 2e35 febc c640 d43a
000003c0: fc1a c1ba e610 fb3c 7121 efbc 489e 04bd
000003d0: 1cf7 18bd df15 423d eeca f5bc 7878 1e3c
000003e0: bb29 353d bbd5 0bbd f634 763c 8f4f 313d
000003f0: 8ab2 cdbb 1844 88bc 1a3d 66bc a8be cf3c

conv3.bias f4 [64]
-0.095433556 0.024365073 0.012706121 0.02714714 0.15594515 -0.0058816 -0.035009675 -0.08029776
-0.15969458 -0.0143249165 -0.071034566 -0.07907829 0.030816555 -0.039551176 0.018073473 0.13306509
0.001286167 -0.19900057 -0.1025895 -0.045943882 0.17392148 0.2514288 -0.088403046 -0.12650733
-0.050282165 0.043933272 0.1007299 -0.017215058 0.26773 -0.15359828 -0.0632615 -0.046992876
-0.042408373 0.12817174 -0.0021562863 -0.06532443 0.13158196 -0.099587925 0.052274793 -0.035368796
-0.040929563 -0.03310266 0.068252936 -0.067153245 -0.014460201 0.14306651 0.009659714 -0.18176311
-0.05044556 0.0291848 -0.049330153 -0.006661622 0.123684675 -0.043822125 -0.038222365 -0.06345378
0.08205855 0.007437405 -0.077007286 0.007472726 -0.080757946 0.003958061 0.1915265 -0.15162982
00000000: ab72 c3bd 4399 c73c 562d 503c ae63 de3c
00000010: 16b0 1f3e 70ba c0bb 4e66 0fbd 2773 a4bd
00000020: fa86 23be 0eb3 6abc 927a 91bd ccf3 a1bd
00000030: 0073 fc3c 6a00 22bd d20e 943c 3742 083e
00000040: 9a94 a83a cec6 4bbe 721a d2bd a72f 3cbd
00000050: 7918 323e 47bb 803e a80c b5bd 238b 01be
00000060: acf4 4dbd 60f3 333d 7a4b ce3d 9806 8dbc
00000070: e813 893e de48 1dbe 3f8f 81bd 9a7b 40bd
00000080: 67b4 2dbd 743f 033e 7b50 0dbb d1c8 85bd
00000090: 6cbd 063e c1f4 cbbd 181e 563d dfde 10bd
000000a0: c2a5 27bd a896 07bd 32c8 8b3d a487 89bd
000000b0: 7bea 6cbc 0780 123e c743 1e3c 1c20 3abe
000000c0: 01a0 4ebd f614 ef3c 6a0e 4abd bc49 dabb
000000d0: 644e fd3d d47e 33bd 0e8f 1cbd 0ef4 81bd
000000e0: 500e a83d 7ab5 f33b ffb5 9dbd c5dd f43b
000000f0: 6c64 a5bd 9fb2 813b 861f 443e d944 1bbe

fc.weight f4 [7, 1536]
-0.027069531 0.015401776 0.01748779 0.006003151 -0.014030994 0.021629278 0.007142446 0.016101308
0.011224369 -0.0035650828 0.01994623 0.02595711 -0.0106568495 0.016410446 0.021756064 5.3421267e-05
0.024698641 0.016493315 0.023216508 0.055512317 0.013730446 0.06372404 0.05192665 0.0010089182
-0.03476292 -0.0020446389 -0.006572449 0.013213803 0.04113648 0.042590696 0.037731856 0.014418043
-0.010543076 0.0025093928 0.019076128 0.020282954 0.039868254 -0.009377722 0.0016231271 -0.00724794
-0.0049511855 0.043900535 0.03499978 0.058069382 0.043755352 0.030529173 -0.015257144 0.01882571
0.019924747 -0.020382212 -0.021525078 -0.017385583 0.01758447 -0.0013817013 0.011968354 -0.018521741
-0.0029306784 -0.023166375 0.0133862505 -0.02650575 0.0024167544 0.03511739 0.0083446065 0.037430767
-0.017046789 0.030981818 0.02343999 0.026458284 -0.0049849004 -0.00345244 -0.019079246 0.025696436
-0.017310465 -0.034720417 -0.048988305 -0.038515307 -0.0035536706 -0.027261661 -0.02042591 -0.0026171894
0.03506322 0.0167429 0.015181858 0.01248401 -0.0043555168 -0.027275134 -0.01076901 0.022534685
-0.019774431 0.035101652 0.020659707 0.014483934 -0.031171618 -0.009879177 -0.01656133 0.026530031
-0.0076004495 0.006231986 -0.027257377 -0.0041691856 0.011172642 0.018453134 0.03165394 -0.03163553
0.0066159926 0.02970158 -0.013462758 0.03353984 0.0054494166 -0.0059350333 0.0030435051 0.014793485
-0.04004665 -0.035902835 0.041297037 0.030920101 -0.018174177 -0.014433374 -0.022318227 -0.05690036
0.041622765 0.03547803 -0.04328582 -0.027995031 -0.033158563 -0.041648977 0.03627131 0.010424045
-0.07603873 -0.0006768721 -0.047426365 -0.024992542 0.052019455 0.03238058 -0.04736255 -0.035542864
0.00092027616 -0.04598722 0.024248058 -0.0076995743 -0.004348682 -0.0036089243 0.033556256 -0.005753547
0.0034546829 -0.013984243 -0.017593473 0.012404182 -0.018611917 -0.010156411 0.0007731837 0.02077424
-0.013777622 -0.020492608 -0.010091935 -0.016239762 -0.002859857 0.01761431 -0.023464551 0.0057280427
-0.021132704 0.023049047 0.0024825518 -0.0057225693 -0.018212657 -0.021392096 0.013268871 -0.024186831
0.045433808 0.05290414 0.070735954 0.020267729 -0.044527207 -0.030155228 0.03659912 -0.012935102
0.038131893 -0.04122004 -0.042008597 0.0064750197 0.08076082 0.061294843 0.032805767 -0.095710956
0.031984713 0.041460913 0.020590853 -0.045411725 0.050915092 0.043252625 0.043709807 0.036545165
0.027645472 0.013866004 -0.013235028 0.000898549 -0.006547036 0.014033634 0.08745766 0.009580199
-0.03197279 0.022578983 -0.044979762 0.01195874 0.030260628 -0.0326491 -0.064164355 -0.018187964
-0.04669197 -0.0025967837 0.042147834 -0.038943794 -0.04136778 -0.053704344 -0.031696346 -0.06364834
-0.023517728 -0.062341034 -0.0153955165 -0.051114224 -0.014608128 -0.008278723 0.0019647996 0.021849053
-0.037020415 -0.0072473967 0.012417721 -0.048828453 0.005261752 -0.005701153 -0.025072543 -0.033676334
-0.0033017965 0.016849926 0.00872676 -0.0024215353 0.029338744 -0.034014918 0.0026766316 -0.000599305
0.01785771 0.06365671 0.086541206 -0.07685012 -0.0022478402 0.0017001485 0.020217085 0.011288807
-0.0691783 0.046687283 0.06146466 0.01291547 0.059325647 -0.00561965 -0.19638792 0.080549546
00000000: ecc0 ddbc bb57 7c3c 8e42 8f3c 15b6 c43b
00000010: 41e2 65bc e22f b13c 2e0b ea3b e4e6 833c
00000020: 6ae6 373c 2aa4 69bb 4766 a33c 01a4 d43c
00000030: 119a 2ebc 336f 863c c639 b23c a610 6038
00000040: ce54 ca3c fd1c 873c 8c30 be3c e260 633d
00000050: aaf5 603c c081 823d 0ab1 543d ad3d 843a
00000060: 9063 0ebd 59ff 05bb b35d d7bb b57e 583c
00000070: ba7e 283d 9573 2e3d b88c 1a3d a839 6c3c
00000080: debc 2cbc a074 243b 8a45 9c3c 7028 a63c
00000090: e54c 233d 04a5 19bc 1cbf d43a 2180 edbb
000000a0: 8e3d a2bb 0cd1 333d ee5b 0f3d 29da 6d3d
000000b0: d038 333d 5118 fa3c 1af9 79bc 6038 9a3c
000000c0: 3939 a33c 99f8 a6bc 5c55 b0bc 366c 8ebc
000000d0: 4e0d 903c 341a b5ba ea16 443c e8ba 97bc
000000e0: a010 40bb 69c7 bdbc 0152 5b3c 9622 d9bc
000000f0: 6962 1e3b 41d7 0f3d d1b7 083c 0151 193d
00000100: b5a5 8bbc 95cd fd3c 3905 c03c 0bbf d83c
00000110: 6058 a3bb 5542 62bb 144c 9cbc 5581 d23c
00000120: adce 8dbc ff36 0ebd f6a7 48bd 3ac2 1dbd
00000130: b3e4 68bb d953 dfbc 3d54 a7bc 2785 2bbb
00000140: 739e 0f3d 6828 893c 54bd 783c bc89 4c3c
00000150: b9b8 8ebb 1a70 dfbc 8070 30bc a99a b83c
00000160: fdfd a1bc c0c6 0f3d 8c3e a93c 064e 6d3c
00000170: 9f5b ffbc 46dc 21bc a0ab 87bc 8255 d93c
00000180: 310d f9bb b035 cc3b dd4a dfbc aa9d 88bb
00000190: 750d 373c 072b 973c 90a7 013d 4294 01bd
000001a0: f8ca d83b ba50 f33c e692 5cbc 1261 093d
000001b0: 0591 b23b ab7a c2bb 8b75 473b 6060 723c
000001c0: f507 24bd da0e 13bd 1527 293d 274c fd3c
000001d0: 03e2 94bc f579 6cbc b7d4 b6bc 5a10 69bd
000001e0: a27c 2a3d 6951 113d 794c 31bd d655 e5bc
000001f0: 46d1 07bd 1e98 2abd 3a91 143d 9dc9 2a3c
00000200: 32ba 9bbd 1e70 31ba 2642 42bd 29bd ccbc
00000210: 5a12 553d 80a1 043d 3cff 41bd 6595 11bd
00000220: b03e 713a 185d 3cbd dda3 c63c b64c fcbb
00000230: 637f 8ebb b483 6cbb 4972 093d 4088 bcbb
00000240: f667 623b 2b1e 65bc 3020 90bc e93a 4b3c
00000250: 0578 98bc 1367 26bc 7baf 4a3a bd2e aa3c
00000260: 89bb 61bc 1de0 a7bc a558 25bc 4009 85bc
00000270: 706c 3bbb e34b 903c bb38 c0bc 4eb2 bb3b
00000280: 7e1e adbc 5bd1 bc3c 4fb2 223b 6484 bbbb
00000290: b632 95bc 7a3e afbc ae65 593c 7623 c6bc
000002a0: cd18 3a3d 03b2 583d 03de 903d 8208 a63c
000002b0: 2962 36bd 1908 f7bc f5e8 153d c0ed 53bc
000002c0: 3030 1c3d 58d6 28bd 3511 2cbd 672c d43b
000002d0: ee65 a53d 4d10 7b3d 575f 063d 1b04 c4bd
000002e0: 6702 033d ebd2 293d 26ae a83c a501 3abd
000002f0: 588c 503d aa29 313d 0e09 333d 62b0 153d
00000300: c278 e23c 3c2e 633c bbd7 58bc 9a8c 6b3a
00000310: 8588 d6bb 54ed 653c 001d b33d 44f6 1c3c
00000320: e6f5 02bd 8ff7 b83c b33c 38bd 97ee 433c
00000330: 23e5 f73c 10bb 05bd 9a68 83bd edfe 94bc
00000340: 1440 3fbd cd2e 2abb 35a3 2c3d 8783 1fbd
00000350: 4371 29bd 16f9 5bbd 07d4 01bd 105a 82bd
00000360: 40a8 c0bc 5059 7fbd 7a3d 7cbc 265d 51bd
00000370: ee56 6fbc 7ba3 07bc dec3 003b c9fc b23c
00000380: b8a2 17bd 927b edbb b273 4b3c 5800 48bd
00000390: c66a ac3b bdd0 babb ef64 cdbc 32f0 09bd
000003a0: f462 58bb db08 8a3c affa 0e3c 9fb2 1ebb
000003b0: ce57 f03c 3a53 0bbd 6d6a 2f3b ae1a 1dba
000003c0: 554a 923c 735e 823d 843c b13d 9963 9dbd
000003d0: 8050 13bb 84d7 de3a 4d9e a53c b0f4 383c
000003e0: 5aad 8dbd 2a3b 3f3d 5ec2 7b3d 689b 533c
000003f0: 73ff 723d 0a25 b8bb ea19 49be 29f7 a43d

fc.bias f4 [7]
-0.15531938 0.2538608 0.462873 -0.16892365 -0.6209512 0.4852521 -0.23133332
00000000: 0b0c 1fbe 0bfa 813e b1fd ec3e 52fa 2cbe
00000010: a8f6 1ebf f772 f83e a4e2 6cbe
