simplemodel.pth (torch, 271600 bytes, 8 tensors)

conv1.weight f4 [32, 3, 3, 3]
0.08584677 0.14174317 -0.066012695 0.07532581 -0.114860706 -0.1735576 0.14032096 0.011674236
-0.02030456 0.017313614 0.09889965 -0.15057516 -0.049440242 0.111128 -0.18023238 0.1260928
-0.16806214 -0.119130746 -0.038275376 0.0032255217 0.09491523 -0.10074953 -0.14062028 0.08472372
0.003388827 0.2121361 -0.056595977 -0.13578369 -0.066849224 -0.18366112 -0.10653708 0.091434784
0.04491196 -0.12402615 -0.16961338 0.042146217 0.101796806 0.12715255 0.13829003 -0.15581943
-0.029775633 -0.050061803 0.1552852 0.016524933 -0.041865073 0.17362617 -0.023924856 -0.08009055
0.11922766 0.0028273347 0.014405253 0.016349783 0.09961925 0.09760118 0.0070391498 0.1653519
0.121859156 0.10748582 -0.1724411 -0.081687346 0.15933992 -0.10376429 0.0730637 -0.29327765
-0.25824058 0.017081667 -0.09396802 -0.29465476 0.030042004 0.06524416 0.013349687 -0.117117174
-0.1671605 0.27647442 0.38328597 0.014669791 0.09639305 0.18329363 -0.0034906203 0.0958105
0.2840672 -0.16247715 0.13573638 0.16368875 0.05128272 0.14106968 -0.0439291 -0.1041261
0.014448213 -0.09141018 -0.07397204 -0.17560269 -0.00031868278 -0.21979323 0.07319723 -0.045084134
-0.22173597 0.09390245 0.027256316 -0.023779154 -0.107010365 0.008634817 0.16101366 0.03032366
0.07445142 0.08296556 -0.075706825 0.013602185 -0.08715162 -0.005322991 0.22101572 0.17769168
0.12507446 0.087667875 -0.10259088 0.057177495 0.13164113 0.021965612 0.051632132 -0.05938518
-0.06400084 -0.21077639 -0.06687841 -0.046476163 0.0024204203 -0.053623706 -0.16443406 -0.25122038
-0.24097261 -0.15716057 -0.106811486 -0.20509882 -0.22059067 -0.11258067 -0.234709 -0.020115294
0.11261971 -0.09778182 0.18414122 -0.11590449 -0.046759464 0.15779994 0.19221708 0.061832912
0.16428474 0.0048947926 0.0318726 0.0865287 0.17822014 0.08830907 0.053788524 0.12705353
-0.02127527 -0.28139153 -0.25502694 -0.31775364 -0.020819101 -0.3144875 -0.32614678 -0.06824168
-0.13739306 -0.155862 -0.1149228 -0.17707266 -0.086046964 -0.21740058 -0.31000122 0.055958297
0.0826848 0.08908077 0.1535024 -0.04375472 0.12680504 0.34896523 -0.24049674 -0.084580906
0.14867355 -0.047077283 0.2951826 0.3719513 -0.06548403 0.13654394 0.105005205 -0.4392384
-0.10821824 -0.19072056 -0.20680721 0.12359881 0.209912 -0.07516881 -0.1199569 -0.15593703
0.045673113 -0.0008700794 0.09848161 0.013894588 0.08076299 0.17083804 0.029976828 -0.13821168
0.23281197 0.16479973 -0.042331114 0.2749693 0.026781727 0.08760781 0.08509181 -0.17428686
-0.3504668 -0.10106323 -0.074205086 -0.15116596 -0.035550334 -0.17422433 -0.18995991 0.17514028
-0.073683456 0.0070168013 -0.0068217884 -0.17994812 -0.02707664 -0.13896981 -0.15451188 0.09882611
-0.067029715 -0.06786149 -0.006899217 -0.16123052 0.15325838 0.029333435 0.14804229 0.1628253
-0.049868427 0.029799229 0.14489724 -0.15535398 0.09378205 -0.13252077 -0.036771752 0.08534852
0.15183342 0.16040376 -0.08678557 -0.055317525 0.050187528 0.1143842 -0.041072413 -0.082573086
0.122403674 -0.104810596 0.111966155 -0.0679482 0.050945733 -0.21185093 -0.17208149 -0.1689049
00000000: 6ed0 af3d 1f25 113e aa31 87bd 6b44 9a3d
00000010: 173c ebbd 15b9 31be 4cb0 0f3e 4b45 3f3c
00000020: c055 a6bc 48d5 8d3c e68b ca3d 6030 1abe
00000030: da81 4abd 1497 e33d d68e 38be 791e 013e
00000040: 7b18 2cbe d2fa f3bd a4c6 1cbd 4663 533b
00000050: eb62 c23d c555 cebd c3fe 0fbe a183 ad3d
00000060: 1517 5e3b 353a 593e 2fd1 67bd e10a 0bbe
00000070: 3fe8 88bd a911 3cbe 1d30 dabd 2942 bb3d
00000080: 9af5 373d 6c01 febd 21af 2dbe 83a1 2c3d
00000090: d87a d03d 4734 023e e79b 0d3e 218f 1fbe
000000a0: 07ec f3bc 9b0d 4dbd 1503 1f3e 4c5f 873c
000000b0: b67a 2bbd 0fcb 313e 0ffe c3bc 8406 a4bd
000000c0: a22d f43d ce4a 393b 0304 6c3c fbef 853c
000000d0: 2d05 cc3d 21e3 c73d aba8 e63b 0252 293e
000000e0: 4b91 f93d 8721 dc3d 6694 30be b24b a7bd
000000f0: 012a 233e 5f82 d4bd 6ca2 953d 7d28 96be
00000100: 1c38 84be daee 8b3c 4e72 c0bd fddc 96be
00000110: a61a f63c bb9e 853d a5b8 5a3c 21db efbd
00000120: 1f2c 2bbe 0e8e 8d3e 0f3e c43e 9059 703c
00000130: b869 c53d 53b1 3b3e e4c2 64bb 4c38 c43d
00000140: 4271 913e 6960 26be 7afe 0a3e 069e 273e
00000150: d40d 523d 9274 103e 00ef 33bd 1140 d5bd
00000160: 33b8 6c3c 4335 bbbd a77e 97bd 31d1 33be
00000170: e114 a7b9 7a11 61be 6ee8 953d 24aa 38bd
00000180: c10e 63be ed4f c03d a348 df3c 80cc c2bc
00000190: 4028 dbbd 0c79 0d3c c4e0 243e 5369 f83c
000001a0: fc79 983d d9e9 a93d 2e0c 9bbd b3db 5e3c
000001b0: 8c7c b2bd 7c6c aebb f251 623e cff4 353e
000001c0: 8513 003e 378b b33d 2b1b d2bd f332 6a3d
000001d0: efcc 063e 3af1 b33c 377c 533d e03d 73bd
000001e0: df12 83bd c4d5 57be 8cf7 88bd ca5d 3ebd
000001f0: ea9f 1e3b 88a4 5bbd 6761 28be f59f 80be
00000200: 86c1 76be b3ee 20be fbbf dabd 6d05 52be
00000210: 85e2 61be b290 e6bd 8e57 70be d4c8 a4bc
00000220: 2aa5 e63d d641 c8bd 848f 3c3e 555f edbd
00000230: da86 3fbd 4f96 213e 8ed4 443e 8244 7d3d
00000240: 423a 283e 7f64 a03b d88c 023d f635 b13d
00000250: 577f 363e 63db b43d 5b51 5c3d 521a 023e
00000260: 7a49 aebc 8d12 90be e492 82be 9bb0 a2be
00000270: d28c aabc 8104 a1be b6fc a6be 4bc2 8bbd
00000280: c4b0 0cbe 4a9a 1fbe a55c ebbd 8952 35be
00000290: 6439 b0bd 429e 5ebe 7bb8 9ebe 8734 653d
000002a0: a656 a93d fb6f b63d bc2f 1d3e 2638 33bd
000002b0: 2ed9 013e 92ab b23e c744 76be c138 adbd
000002c0: e13d 183e 1cd4 40bd 2c22 973e 6770 be3e
000002d0: 7e1c 86bd 2dd2 0b3e f80c d73d dbe3 e0be
000002e0: 86a1 ddbd 404c 43be 45c5 53be 5f21 fd3d
000002f0: 2cf3 563e 1bf2 99bd f7ab f5bd f5ad 1fbe
00000300: bb13 3b3d 0a16 64ba bab0 c93d 20a6 633c
00000310: 1167 a53d 2bf0 2e3e f791 f53c 5d87 0dbe
00000320: 4366 6e3e 43c1 283e 6463 2dbd c7c8 8c3e
00000330: 5a65 db3c b96b b33d 9d44 ae3d 4178 32be
00000340: 6270 b3be 3dfa cebd d6f8 97bd 40cb 1abe
00000350: 3a9d 11bd dd67 32be da84 42be f957 333e
00000360: 5ae7 96bd 32ed e53b 4f89 dfbb 5244 38be
00000370: d4cf ddbc 1a4e 0ebe 5d38 1ebe 5865 ca3d
00000380: e046 89bd f7fa 8abd d412 e2bb 9d19 25be
00000390: c4ef 1c3e ac4c f03c 6698 173e adbb 263e
000003a0: d642 4cbd 831d f43c f15f 143e 1d15 1fbe
000003b0: ce10 c03d 86b3 07be fa9d 16bd 34cb ae3d
000003c0: 387a 1b3e e240 243e a2bc b1bd a194 62bd
000003d0: 7091 4d3d 4342 ea3d 8c3b 28bd 141c a9bd
000003e0: c7ae fa3d f0a6 d6bd 834e e53d 6d28 8bbd
000003f0: 79ac 503d 73ef 58be 2136 30be 68f5 2cbe

conv1.bias f4 [32]
-0.009532839 -0.051252913 -0.0020890408 -0.17367397 -0.54818404 -0.100813344 0.3393665 0.16272734
-0.121027015 -0.44343314 0.35370496 0.7888915 0.2677763 0.066193625 -0.1617858 -0.29150158
0.17206413 -0.034749363 0.57933533 -0.08665646 -0.29581 -0.10337756 -0.15699853 0.36250883
-0.7413354 -0.5985844 -0.35473198 0.30980334 0.16867124 -0.5234859 0.24218225 0.115469374
00000000: a02f 1cbc 93ee 51bd 4ae8 08bb 97d7 31be
00000010: ca55 0cbf 3a77 cebd 72c1 ad3e ffa1 263e
00000020: 03dd f7bd ab09 e3be d118 b53e cbf4 493f
00000030: fa19 893e 8690 873d 2dab 25be b23f 95be
00000040: 9431 303e 5955 0ebd 524f 143f f178 b1bd
00000050: 6974 97be 9db7 d3bd 39c4 20be c29a b93e
00000060: 28c8 3dbf d43c 19bf 6e9f b5be 8b9e 9e3e
00000070: 27b8 2c3e 2c03 06bf a0fe 773e 357b ec3d

conv2.weight f4 [64, 32, 3, 3]
0.04029366 -0.060601592 -0.019218022 0.041687842 -0.052119732 -0.018025517 -0.06986872 -0.008734479
-0.039332148 -0.049913306 0.038113885 0.059424546 0.027125949 0.016507434 0.024798347 -0.051015608
-0.03397453 -0.0053318506 -0.04672952 -0.080931075 -0.04236674 0.014966177 -0.07034924 -0.047815334
-0.094116285 0.00024241299 -0.065355584 0.024846727 0.03009356 0.035305224 0.03270564 -0.043677498
-0.034760576 0.051270958 -0.034323614 -0.04198828 -0.07171525 -0.06769485 -0.04005097 -0.06131229
-0.048871823 0.031843316 0.011891143 0.015409374 -0.064233616 -0.016102277 0.067669146 -0.026299605
-0.03554525 0.04509756 0.00070994673 -0.013682735 0.049709376 0.027343394 0.036398 -0.020432256
0.1091106 0.053310074 0.022154754 0.10762191 0.05844575 0.067536116 -0.022336485 0.029074537
0.05110773 0.047369078 0.055205703 0.0828644 0.008942538 0.032390516 0.052668963 0.0045943335
0.057996813 -0.0049352255 -0.056012496 -0.043316647 -0.010669823 -0.0244772 -0.050449133 -0.03680857
-0.026478913 -0.022758566 0.026748966 -0.026966441 -0.07207102 -0.06741566 -0.020838583 -0.016301842
-0.015429408 -0.060991786 0.0057342635 -0.020642458 -0.04948618 0.023478499 -0.011601616 0.044064246
-0.02588422 -0.012019583 -0.016685791 -0.024441268 0.012698756 0.009759047 0.05233006 -0.027551569
0.06410604 -0.038395308 0.00069011335 -0.020179987 -0.052142538 0.025118217 0.036000334 1.1556627e-05
0.0132954195 -0.003831962 -0.036163073 0.044876147 0.015823795 -0.010005526 -0.039312195 0.028993554
-0.006938786 0.0039259368 -0.054386057 0.0058134114 0.057876017 0.018549273 -0.011875665 0.005591688
0.008201899 -0.00291195 -0.047105193 0.055491146 -0.055813394 0.032210365 0.008831068 0.123718955
0.04310092 0.048416123 0.044898324 0.05313555 0.054470062 0.0261468 0.10986638 0.033311885
-0.08509363 -0.13333131 -0.09434329 -0.039557014 -0.020651283 -0.05936228 -0.0572634 -0.0456113
-0.069412544 0.04902052 0.04953565 0.047863334 -0.03965258 0.019121677 -0.059448466 -0.06625542
-0.04188802 -0.08083422 0.08816653 0.0409908 0.07868508 -0.005453191 0.09404061 0.10000611
0.007131593 -0.020488942 0.062476415 0.04584489 -0.047876086 -0.014367919 0.0067769056 0.043538064
0.031738117 -0.026147425 -0.03680321 -0.031154234 -0.009021368 -0.061231535 0.002464342 -0.005405211
-0.03710055 -0.074554 -0.03954482 -0.06305102 -0.012398852 0.02384897 0.043386687 -0.012472929
-0.051308468 0.03488872 -0.039856948 -0.035001643 0.018124059 -0.012211225 0.040506292 -0.041956607
-0.012378777 0.04836955 0.040240068 0.029572075 0.031624153 -0.009609463 -0.026207637 0.09324809
0.07581814 0.026696494 0.057095025 0.081351586 0.018760465 -0.03890174 -0.0127613675 0.073341675
0.06298955 0.039599657 -0.014153092 -0.024134668 0.037967276 0.04921312 -0.03435555 -0.052434776
0.013540309 -0.11518616 -0.07726001 -0.097699866 -0.037628446 -0.089652784 -0.082758315 -0.11710481
-0.09994361 -0.12879844 0.01764282 0.020034693 -0.024463166 -0.081435874 -0.019141875 0.0026275413
0.019232132 -0.07643053 -0.02016506 0.07480144 0.047783814 0.0266087 0.01828425 0.027172856
0.08624979 0.04215218 0.053774416 0.0713195 -0.064430885 -0.0078106374 0.03126831 -0.05714394
00000000: f70a 253d 6039 78bd 1d6f 9dbc dfc0 2a3d
00000010: 807b 55bd 40aa 93bc 5517 8fbd 0f1b 0fbc
00000020: bf1a 21bd e571 4cbd 4e1d 1c3d 2767 733d
00000030: 3d37 de3c 993a 873c e725 cb3c bef5 50bd
00000040: e028 0bbd ceb6 aebb 7467 3fbd 31bf a5bd
00000050: bf88 2dbd b234 753c 4313 90bd 03da 43bd
00000060: 0ac0 c0bd 3e30 7e39 26d9 85bd 5d8b cb3c
00000070: c586 f63c 369c 103d 59f6 053d 2de7 32bd
00000080: 1b61 0ebd 7f01 523d eb96 0cbd e7fb 2bbd
00000090: 72df 92bd 99a3 8abd 7c0c 24bd 9922 7bbd
000000a0: d22d 48bd 236e 023d 12d3 423c 9977 7c3c
000000b0: ea8c 83bd ece8 83bc 1f96 8a3d 4572 d7bc
000000c0: e597 11bd 38b8 383d b81b 3a3a 8d2d 60bc
000000d0: 0f9c 4b3d 41ff df3c 1216 153d 8c61 a7bc
000000e0: 6175 df3d aa5b 5a3d e37d b53c e068 dc3d
000000f0: d064 6f3d 6050 8a3d 01fb b6bc b92d ee3c
00000100: 5756 513d 1406 423d 601f 623d d0b4 a93d
00000110: b983 123c ebab 043d 69bb 573d 108c 963b
00000120: 118e 6d3d acb7 a1bb 5c6d 65bd cc6c 31bd
00000130: 7bd0 2ebc 6984 c8bc c0a3 4ebd 95c4 16bd
00000140: 4eea d8bc 2c70 babc a620 db3c bae8 dcbc
00000150: f999 93bd 3911 8abd adb5 aabc 718b 85bc
00000160: a1cb 7cbc 86d2 79bd 7de6 bb3b 5f1a a9bc
00000170: 05b2 4abd fb55 c03c b414 3ebc b67c 343d
00000180: 250b d4bc c9ed 44bc a4b0 88bc 0e39 c8bc
00000190: 710e 503c 69e4 1f3c 0c58 563d d4b3 e1bc
000001a0: 074a 833d 6644 1dbd b9e8 343a 8050 a5bc
000001b0: 6a93 55bd b8c4 cd3c 1675 133d 56e3 4137
000001c0: 08d5 593c a721 7bbb bb1f 14bd 0dd0 373d
000001d0: e7a0 813c 38ee 23bc d305 21bd e483 ed3c
000001e0: c15e e3bb 25a5 803b eac3 5ebd 6e7e be3b
000001f0: 670f 6d3d a5f4 973c 2692 42bc 7b3a b73b
00000200: 4261 063c 6ad6 3ebb 60f1 40bd af4a 633d
00000210: 969c 64bd 04ef 033d 2fb0 103c 5d60 fd3d
00000220: 978a 303d fc4f 463d 4ee7 373d aaa4 593d
00000230: 001c 5f3d d031 d63c a001 e13d 0b72 083d
00000240: 9245 aebd 0188 08be 0e37 c1bd 8906 22bd
00000250: e12c a9bc dd25 73bd 078d 6abd ead2 3abd
00000260: 2a28 8ebd bec9 483d e5e5 4a3d 580c 443d
00000270: be6a 22bd 10a5 9c3c 3c80 73bd ecb0 87bd
00000280: c692 2bbd 698c a5bd a790 b43d f8e5 273d
00000290: a525 a13d afb0 b2bb 5d98 c03d 01d0 cc3d
000002a0: 23b0 e93b 6dd8 a7bc 45e7 7f3d dac7 3b3d
000002b0: b719 44bd 6c67 6bbc ce10 de3b f854 323d
000002c0: d4ff 013d 2033 d6bc f6be 16bd 2a37 ffbc
000002d0: 5cce 13bc ebcd 7abd cc80 213b 321e b1bb
000002e0: bff6 17bd c4af 98bd c0f9 21bd e520 81bd
000002f0: 8e24 4bbc ea5e c33c 3db6 313d 425b 4cbc
00000300: d428 52bd 79e7 0e3d 0a41 23bd e25d 0fbd
00000310: e878 943c 9711 48bc ede9 253d b1da 2bbd
00000320: 5bd0 4abc 261f 463d c5d2 243d 2341 f23c
00000330: 5488 013d 0271 1dbc 66b1 d6bc dbf8 be3d
00000340: 8a46 9b3d 9bb2 da3c 79dc 693d a99b a63d
00000350: 8caf 993c 6e57 1fbd 0e15 51bc 2934 963d
00000360: aa00 813d 4033 223d 5fe2 67bc 11b6 c5bc
00000370: 9383 1b3d b293 493d 68b8 0cbd d9c5 56bd
00000380: 2cd8 5d3c b9e6 ebbd 7f3a 9ebd de16 c8bd
00000390: 4920 1abd e19b b7bd 317d a9bd a6d4 efbd
000003a0: 3caf ccbd bde3 03be ad87 903c cc1f a43c
000003b0: fa66 c8bc dac7 a6bd 6ccf 9cbc d432 2c3b
000003c0: b48c 9d3c 9c87 9cbd 3231 a5bc 7f31 993d
000003d0: f6b8 433d 7dfa d93c dac8 953c 9c99 de3c
000003e0: bba3 b03d c4a7 2c3d 9042 5c3d f50f 923d
000003f0: 57f4 83bd 60f0 ffbb 3313 003d c40f 6abd

conv2.bias f4 [64]
-0.15109138 -0.044520147 -0.21249303 -0.05042326 0.033398844 -0.004965315 0.15799662 -0.09762546
-0.02986742 -0.110016346 -0.010625543 -0.103830256 0.08422051 0.1113794 -0.041529384 0.041566998
0.16697434 -0.25434524 -0.06767186 0.12890556 -0.094313 0.011778386 -0.08545979 0.010485103
0.088672474 0.051618118 0.016979579 -0.0412703 0.016973628 0.039396763 -0.047535643 0.1071733
0.18223906 -0.04805019 -0.24018805 -0.048579764 0.06451115 -0.047161985 -0.108424135 0.21815555
-0.09677324 -0.090089366 -0.050569527 -0.12113815 -0.046560757 -0.15092024 -0.06905316 -0.09463526
-0.062016364 0.005101061 0.09398901 -0.030847823 -0.10404737 -0.04307293 0.010191925 -0.19997306
0.029979937 0.13542192 -0.021974213 0.09705561 -0.27634415 0.04141767 0.053595606 0.09647371
00000000: b3b7 1abe c25a 36bd c697 59be 9f88 4ebd
00000010: 3acd 083d 15b4 a2bb dec9 213e dbef c7bd
00000020: 85ac f4bc 4050 e1bd c216 2ebc f5a4 d4bd
00000030: ce7b ac3d e21a e43d b71a 2abd 2842 2a3d
00000040: 52fb 2a3e 8a39 82be 8b97 8abd d2ff 033e
00000050: 2d27 c1bd 22fa 403c 8b05 afbd b6c9 2b3c
00000060: ea99 b53d 856d 533d c218 8b3c 0c0b 29bd
00000070: 470c 8b3c 805e 213d bcb4 42bd ad7d db3d
00000080: e09c 3a3e 47d0 44bd dbf3 75be 93fb 46bd
00000090: 6c1e 843d ed2c 41bd 790d debd 2b64 5f3e
000000a0: 0c31 c6bd c680 b8bd fe21 4fbd 4717 f8bd
000000b0: 7eb6 3ebd d68a 1abe be6b 8dbd 22d0 c1bd
000000c0: df04 7ebd cd26 a73b 4f7d c03d 93b4 fcbc
000000d0: ca16 d5bd 3e6d 30bd 08fc 263c bdc5 4cbe
000000e0: 7c98 f53c 0bac 0a3e 4403 b4bc 17c5 c63d
000000f0: fb7c 8dbe 93a5 293d 1187 5b3d 0294 c53d

conv3.weight f4 [64, 64, 3, 3]
-0.008326134 -0.04117842 0.016514827 -0.060181934 -0.049648855 -0.0075646513 -0.059288993 -0.048928842
0.036099285 0.026265165 0.013343351 -0.0041749068 -0.04247238 -0.027067237 0.012921934 -0.015868748
0.031835426 -0.0057669794 -0.03261927 -0.008743065 -0.03830362 0.004689283 -0.0110647585 -0.012949121
-0.015881075 -0.019092876 0.0088960705 -0.011157465 -0.018721795 -0.036212094 0.015368279 -0.017848395
0.025815776 0.0010136825 0.004331874 -0.01913116 0.013097232 -0.01660995 -0.040367965 0.029370988
0.024345847 -0.054359123 0.04462007 -0.010995511 -0.0054892404 -0.050896194 -0.01603747 -0.03189555
-0.041855883 -0.0061941533 -0.058125827 0.034009896 0.0029284456 -0.029194597 -0.03277007 0.04279646
0.024322564 -0.026027344 -0.024581866 -0.025845591 -0.0032766664 0.033041228 -0.032444652 -0.0056131384
0.031131119 0.03423175 0.02511371 0.07423924 -0.019507542 -0.016358342 0.08471418 -0.06031247
0.031036207 0.012321014 0.028893076 -0.026225006 0.0021391779 -0.037069824 -0.037177492 0.018894007
-0.021645878 -0.03979299 -0.015995659 0.004769112 0.03277122 0.012833105 -0.022870243 0.05290907
0.01897406 -0.048736908 0.039841015 0.0010664279 -0.010380278 -0.023867847 -0.02928392 0.019223902
0.016641013 -0.022982012 0.03706343 -0.022764679 -0.06843615 0.01757564 0.019640958 -0.030775651
-0.033480182 0.03837907 0.05283959 -0.009855023 -0.011388085 -0.017468108 -0.019744141 0.0074427426
0.0009386477 0.024900239 0.027735228 0.007560649 -0.03594806 -0.010666093 0.006657231 0.006062967
0.023249578 -0.05088287 -0.045296516 0.0152281625 0.039648026 -0.0285542 0.03996782 -0.035918474
0.0053322343 -0.0014795928 -0.010866041 -0.015317155 0.025790261 -0.039185233 0.009117459 -0.022613283
-0.003193748 0.016875897 -0.0016955795 -0.034874722 0.050245177 0.036740925 0.043104813 -0.016917532
-0.0504245 0.022861017 -0.021282278 0.00362448 0.02348646 -0.058756594 0.025901003 0.011639679
0.028560925 0.020500934 -0.027169563 0.0114377085 -0.06263078 -0.043634992 -0.023430133 -0.01040012
-0.06782816 -0.05217857 -0.029965041 0.031750154 -0.008226519 0.025749288 -0.03311139 -0.010813764
0.058549304 -0.032529723 0.023944976 -0.055811737 -0.0102068195 0.017160945 0.010933626 -0.005002053
-0.027690195 0.026924264 0.0650838 -0.01768298 -0.029740565 -0.053037934 -0.013315892 -0.021175418
-0.037270352 0.019204771 0.0019561814 0.022759933 -0.011654744 -0.059830416 -0.016360447 0.0072801253
0.0041427272 0.000982776 -0.02343623 0.07969803 -0.06012858 -0.026671678 -0.001672057 -0.023252055
-0.021748228 -0.03462155 -0.033218645 -0.061469227 0.04965006 0.050763313 -0.056039087 -0.01555686
-0.06427172 -0.046492815 0.019919133 0.0008028549 0.006631434 0.051171895 -0.02073678 0.009088598
-0.017882045 -0.050953325 -0.002998728 -0.021772088 0.011125818 -0.03736063 0.034091875 0.03352184
0.024491103 -0.042679004 0.039585482 -0.008050146 -0.036743935 0.022471478 -0.01282334 0.0017141206
0.039093513 -0.042884853 0.030327063 0.008535728 0.0016953776 -0.035751726 0.025077531 0.0013701485
0.011051482 0.0004390562 -0.012857142 -0.05201196 0.017650852 -0.0533258 -0.023046706 -0.030000864
-0.037671167 -0.039304964 -0.036929846 -0.027453886 0.022460578 -0.03160807 -0.03635665 0.03950861
00000000: 566a 08bc b4aa 28bd 1a4a 873c 5581 76bd
00000010: 995c 4bbd e5e0 f7bb 04d9 72bd 9c69 48bd
00000020: d8dc 133d 0b2a d73c 129e 5a3c a8cd 88bb
00000030: 85f7 2dbd 1cbc ddbc 85b6 533c 2dff 81bc
00000040: dd65 023d eef8 bcbb c99b 05bd 133f 0fbc
00000050: 42e4 1cbd 8fa8 993b f648 35bc 8d28 54bc
00000060: 0719 82bc aa68 9cbc d3c0 113c cdcd 36bc
00000070: 735e 99bc 2253 14bd 3ccb 7b3c cc36 92bc
00000080: 9b7b d33c 8add 843a 65f2 8d3b f3b8 9cbc
00000090: c695 563c 9711 88bc e158 25bd 6d9b f03c
000000a0: f170 c73c aca7 5ebd 89c3 363d 8426 34bc
000000b0: 16df b3bb 8778 50bd 0361 83bc e9a4 02bd
000000c0: 1371 2bbd 53f8 cabb 5915 6ebd f64d 0b3d
000000d0: 2aeb 3f3b 8229 efbc e939 06bd 574b 2f3d
000000e0: 1d40 c73c 4c37 d5bc e95f c9bc 22ba d3bc
000000f0: 57bd 56bb 3d56 073d afe4 04bd 6bee b7bb
00000100: b006 ff3c 9736 0c3d 44bb cd3c be0a 983d
00000110: 48ce 9fbc ee01 86bc a17e ad3d 350a 77bd
00000120: a53f fe3c 14de 493c 2cb1 ec3c d3d5 d6bc
00000130: 7331 0c3b 87d6 17bd 6d47 18bd 9bc7 9a3c
00000140: b252 b1bc f9fd 22bd 5409 83bc 3646 9c3b
00000150: 1d3b 063d f241 523c 605a bbbc 2eb7 583d
00000160: 7d6f 9b3c 5aa0 47bd 5530 233d 62c7 8b3a
00000170: 0b12 2abc 8186 c3bc d5e4 efbc 727b 9d3c
00000180: bc52 883c c644 bcbc d3cf 173d fe7c babc
00000190: 4128 8cbd cafa 8f3c 13e6 a03c 381d fcbc
000001a0: 8422 09bd 5f33 1d3d 536e 583d f676 21bc
000001b0: 1795 3abc 4719 8fbc 77be a1bc 40e2 f33b
000001c0: 950f 763a 96fb cb3c fd34 e33c 52bf f73b
000001d0: 463e 13bd d6c0 2ebc e724 da3b daab c63b
000001e0: e675 be3c 8e6a 50bd d788 39bd 8b7f 793c
000001f0: f865 223d 7fea e9bc 4cb5 233d 401f 13bd
00000200: 06ba ae3b e5ee c1ba 7b07 32bc cef4 7abc
00000210: 1946 d33c b280 20bd 6561 153c 7e3f b9bc
00000220: 334e 51bb 523f 8a3c 353e deba ccd8 0ebd
00000230: e3cd 4d3d a77d 163d ac8e 303d a396 8abc
00000240: ec89 4ebd 0747 bb3c 2c58 aebc af88 6d3b
00000250: ad66 c03c c1aa 70bd 572e d43c 5ab4 3e3c
00000260: 9af8 e93c 93f1 a73c b492 debc 3a65 3b3c
00000270: 9144 80bd 9bba 32bd 8df0 bfbc 4465 2abc
00000280: 7ee9 8abd 32b9 55bd 3f79 f5bc 730c 023d
00000290: 86c8 06bc 2cf0 d23c cf9f 07bd 372c 31bc
000002a0: 65d1 6f3d e33d 05bd 4128 c43c d99a 64bd
000002b0: 813a 27bc 1c95 8c3c f422 333c 43e8 a3bb
000002c0: 8cd6 e2bc 4690 dc3c a84a 853d e6db 90bc
000002d0: 7ca2 f3bc 4e3e 59bd e62a 5abc 1278 adbc
000002e0: cca8 18bd 5353 9d3c 4733 003b 0a73 ba3c
000002f0: 8af3 3ebc bd10 75bd 5806 86bc 1e8e ee3b
00000300: b7bf 873b 7ed0 803a 56fd bfbc b938 a33d
00000310: 6349 76bd 907e dabc ec28 dbba 187b bebc
00000320: 5729 b2bc 54cf 0dbd 4610 08bd 28c7 7bbd
00000330: dc5d 4b3d 31ed 4f3d 3e89 65bd 33e2 7ebc
00000340: e4a0 83bd 406f 3ebd 732d a33c ae76 523a
00000350: 804c d93b 9f99 513d 2ee0 a9bc 58e8 143c
00000360: 5e7d 92bc 6fb4 50bd 4f86 44bb 615b b2bc
00000370: 1049 363c 7607 19bd eca3 0b3d 324e 093d
00000380: 91a1 c83c 2ed0 2ebd 6324 223d c2e4 03bc
00000390: cf80 16bd 1b16 b83c fc18 52bc 58ac e03a
000003a0: 8520 203d 07a8 2fbd 7670 f83c 70d9 0b3c
000003b0: 6f37 de3a 6770 12bd 656f cd3c 8e96 b33a
000003c0: 4611 353c 2031 e639 c3a6 52bc 7e0a 55bd
000003d0: 8598 903c 276c 5abd 72cc bcbc 5fc4 f5bc
000003e0: 154d 1abd 3efe 20bd c043 17bd f9e6 e0bc
000003f0: 3fff b73c 7777 01bd b6ea 14bd c8d3 213d

conv3.bias f4 [64]
-0.0025619387 -0.003863333 0.005999785 0.044534728 0.039464746 -0.078656994 0.011686207 0.26795653
-0.06080375 -0.058719873 0.026564257 -0.02543031 -0.06909518 -0.043256864 -0.28319883 0.0025019916
0.03336903 0.023507776 0.0059741884 -0.055057164 -0.13249081 -0.11041906 0.11604788 -0.044600885
-0.056829415 -0.08638064 0.05889777 0.0480287 -0.05363444 0.26643017 -0.06382123 -0.041561466
0.085576236 -0.015395737 0.0034858247 0.12559985 0.13128714 0.05867627 -0.018440872 -0.0903142
-0.031208906 0.10508876 0.30894613 0.062516235 0.09222056 0.12797767 -0.0827247 -0.13513888
0.17409462 0.13677877 0.051470377 -0.04916692 -0.038218673 -0.1095051 -0.010876307 0.09352111
0.23319645 0.10886879 -0.012119309 0.14460516 -0.08344637 -0.024599815 -0.06795404 0.007164228
00000000: 33e6 27bb f92f 7dbb d899 c43b 0c6a 363d
00000010: c9a5 213d eb16 a1bd 8177 3f3c 9931 893e
00000020: 5a0d 79bd 4084 70bd 499d d93c 3a53 d0bc
00000030: c681 8dbd 1c2e 31bd 70ff 90be 74f8 233b
00000040: f7ad 083d 6193 c03c 20c3 c33b 9f83 61bd
00000050: acab 07be 6323 e2bd 83aa ed3d 6baf 36bd
00000060: f6c5 68bd 55e8 b0bd ca3e 713d beb9 443d
00000070: c9af 5bbd 8969 883e b4b4 82bd 5b3c 2abd
00000080: 9842 af3d 673e 7cbc 6f72 643b 3f9d 003e
00000090: 2370 063e 8756 703d 5011 97bc a7f6 b8bd
000000a0: d2a9 ffbc c738 d73d 302e 9e3e 8308 803d
000000b0: 22de bc3d 940c 033e 916b a9bd d961 0abe
000000c0: dc45 323e bc0f 0c3e 9ad2 523d 4163 49bd
000000d0: 2f8b 1cbd 3644 e0bd 8a32 32bc ff87 bf3d
000000e0: 0dcb 6e3e 9af6 de3d 1190 46bc 6013 143e
000000f0: eee5 aabd 8d85 c9bc 7d2b 8bbd e6c1 ea3b

fc.weight f4 [7, 1536]
-0.015463028 0.006076102 0.05490172 -0.030425346 0.012440167 0.029105438 0.018223805 0.040325835
-0.029786464 -0.014096108 0.03320513 0.06999291 0.031847082 -0.03153731 0.003592982 -0.011527416
0.05366588 0.05952678 -0.0022829925 0.03635246 -0.005705452 -0.007812235 0.07792816 0.024216698
-0.0064983186 -0.017241484 0.015331476 -0.00039850516 0.015696047 -0.016535612 0.020255437 -0.010041489
0.01024133 -7.080284e-05 0.015492467 0.0042423466 0.004594282 -0.017606664 0.022523236 0.005631203
-0.010008705 0.004034797 0.019636694 0.028294949 -0.008031013 0.0045735138 -0.020177577 0.0090674255
0.042242076 -0.020883992 0.0038494628 0.0030480486 -0.01746214 0.011876831 0.014784962 -0.005965567
-0.046273038 -0.04402781 -0.021053527 -0.005952859 0.038736958 -0.03065568 -0.03582907 -0.031178568
-0.027404433 0.014544339 -0.0015946015 0.0004654364 -0.0031652683 0.0035137304 0.029376937 -0.00956737
-0.015604476 -0.023738783 0.0072404146 -0.034802288 0.025907356 -0.010484542 -0.022254406 0.0017369259
-0.0026223166 0.018182686 0.033655122 0.024483586 -0.0066533727 -0.001906939 -0.0119033875 -0.005166883
-0.017307244 0.002874764 -0.00565206 0.0029041765 -0.0036247752 0.022286806 0.054128718 0.022258783
-0.041245587 -0.050466973 -0.040845364 -0.033146273 -0.037237287 0.01911781 -0.033502277 -0.013655194
0.013499405 0.0006399959 0.029849099 -0.007680878 0.011633195 0.005969848 0.001723204 0.0074064345
-0.030639129 -0.031714108 -0.0045759487 0.012802743 0.03341955 0.039693844 -0.017274572 0.022318235
0.035669327 0.025737971 0.034533974 -0.023078814 0.015446956 -0.011786888 0.008804591 0.022867665
0.022297908 -0.0049140323 -0.013348406 0.02767571 0.013419862 -0.026846224 -0.025428636 -0.011119202
0.013975595 -0.020188099 0.0065731914 -0.028341131 0.0021776676 0.031210765 -0.0050214645 0.0074481084
-0.031865295 0.004762328 -0.006388927 0.017133215 -0.008440348 -0.030122185 -0.018352509 -0.0073384377
-0.022560086 -0.051113877 -0.020369977 0.020140106 0.020432325 -0.013259184 -0.03939657 -0.047526743
0.012950814 0.013974718 0.033875722 0.002495986 -0.008058529 0.0026446239 -0.0041646115 0.01724313
0.023501106 0.010141479 0.008657455 0.047477223 0.025180561 0.025165556 0.039571382 0.02395717
0.017130641 0.048403557 -0.049477722 0.0043648575 0.055296868 0.008328267 0.061167914 -0.021966577
-0.04779133 -0.011277532 0.03506044 0.021976603 0.0076888716 0.00902899 -0.04244549 -0.049444377
0.026730057 0.047408503 0.023026627 -0.0010193769 -0.020419523 -0.038236037 0.11836675 -0.02807679
-0.1820683 -0.006530489 -0.03011303 -0.014745634 0.041657347 0.0033070736 -0.01798575 0.04583887
0.0998103 -0.013541089 -0.016219081 0.02715376 -0.061699957 0.04130855 0.10323669 -0.023042696
-0.025104512 -0.036063604 0.020118484 0.00038393517 -0.028933842 -0.018779298 -0.058480486 0.06482957
0.005309802 0.012030104 0.004075114 -0.0069213775 -0.051851396 0.0055003446 0.0069132396 -0.03532447
-0.01224799 0.003293898 0.0024722228 0.030588133 -0.035470318 -0.0021182294 0.0019016799 0.015069216
0.037072033 0.021377526 -0.0021887894 -0.01705685 0.005525622 0.0062804096 -0.0065090624 0.032124437
0.031804774 0.0021288826 -0.009088609 -0.0021658945 -0.0017153891 0.021146886 0.0017639678 0.045817558
00000000: a458 7dbc 0a1a c73b a0e0 603d 933e f9bc
00000010: d8d1 4b3c 876e ee3c 174a 953c b42c 253d
00000020: be02 f4bc 5df3 66bc 1a02 083d 7158 8f3d
00000030: 1672 023d 442d 01bd 3c78 6b3b 7ddd 3cbc
00000040: c1d0 5b3d 5ad2 733d 429e 15bb 51e6 143d
00000050: cdf4 babb c7fd ffbb cd98 9f3d 1962 c63c
00000060: d9ef d4bb 033e 8dbc df30 7b3c 75ee d0b9
00000070: ff94 803c b175 87bc bbee a53c 0f85 24bc
00000080: 40cb 273c fc7b 94b8 1ed4 7d3c 6203 8b3b
00000090: a18b 963b da3b 90bc a682 b83c f485 b83b
000000a0: 8dfb 23bc 5536 843b 22dd a03c cfca e73c
000000b0: 8394 03bc 6add 953b 724b a5bc 8a8f 143c
000000c0: 0706 2d3d e814 abbc 4547 7c3b c5c1 473b
000000d0: c30c 8fbc 0a97 423c a03c 723c ce7a c3bb
000000e0: cc88 3dbd 8156 34bd 7278 acbc 3310 c3bb
000000f0: a5aa 1e3d 9f21 fbbc 81c1 12bd 326a ffbc
00000100: 437f e0bc 614b 6e3c f301 d1ba d105 f439
00000110: 6470 4fbb 9d46 663b e7a7 f03c 75c0 1cbc
00000120: eba9 7fbc d677 c2bc 0041 ed3b d88c 0ebd
00000130: aa3b d43c 5bc7 2bbc df4e b6bc 90a9 e33a
00000140: 2cdb 2bbb dbf3 943c f4d9 093d cd91 c83c
00000150: 8904 dabb 41f2 f9ba 6d06 43bc f54e a9bb
00000160: ecc7 8dbc 8966 3c3b ea34 b9bb ff53 3e3b
00000170: a38d 6dbb d292 b63c 13b6 5d3d 0d58 b63c
00000180: 22f1 28bd 75b6 4ebd 784d 27bd 63c4 07bd
00000190: 2086 18bd f49c 9c3c af39 09bd 09ba 5fbc
000001a0: 9c2c 5d3c 66c5 273a 1986 f43c e0af fbbb
000001b0: 2899 3e3c b79e c33b 22dd e13a adb1 f23b
000001c0: e9fe fabc a7e6 01bd d7f1 95bb 99c2 513c
000001d0: f0e2 083d 0396 223d 6783 8dbc bbd4 b63c
000001e0: 001a 123d 70d8 d23c 7f73 0d3d c80f bdbc
000001f0: 3b15 7d3c cb1d 41bc 2241 103c f854 bb3c
00000200: 1aaa b63c e405 a1bb 46b3 5abc 2cb8 e23c
00000210: fbde 5b3c 9dec dbbc b74f d0bc 502d 36bc
00000220: e5f9 643c 8361 a5bc ed63 d73b a92b e8bc
00000230: 33b7 0e3b b8ad ff3c 198b a4bb 430f f43b
00000240: 2f85 02bd 4e0d 9c3b 345a d1bb f55a 8c3c
00000250: 6349 0abc cdc2 f6bc 0058 96bc 4777 f0bb
00000260: eecf b8bc c95c 51bd f0de a6bc ddfc a43c
00000270: b161 a73c 0c3d 59bc 4c5e 21bd 67ab 42bd
00000280: a72f 543c 37f6 643c 45c1 0a3d b293 233b
00000290: ec07 04bc 6d51 2d3b 4b77 88bb 7741 8d3c
000002a0: 6485 c03c 7228 263c 00d8 0d3c 7a77 423d
000002b0: 7747 ce3c ff27 ce3c 9a15 223d d441 c43c
000002c0: 8f55 8c3c cf42 463d 27a9 4abd 1407 8f3b
000002d0: f87e 623d 4973 083c 358b 7a3d 40f3 b3bc
000002e0: d7c0 43bd 66c5 38bc 899b 0f3d 4708 b43c
000002f0: eef2 fb3b 54ee 133c 52db 2dbd 3086 4abd
00000300: fef8 da3c 6b2f 423d 56a2 bc3c 9d9c 85ba
00000310: d846 a7bc 649d 1cbd 446a f23d 4c01 e6bc
00000320: 1d70 3abe b6fd d5bb 9aaf f6bc ac97 71bc
00000330: e5a0 2a3d 7dbb 583b da56 93bc 8ac1 3b3d
00000340: 5869 cc3d 72db 5dbc e1dd 84bc 9071 de3c
00000350: 18b9 7cbd 2733 293d c26d d33d 09c4 bcbc
00000360: faa7 cdbc 6eb7 13bd 85cf a43c e84a c939
00000370: aa06 edbc 0bd7 99bc 3c89 6fbd 5ec5 843d
00000380: d9fd ad3b ea19 453c 8988 853b b9cc e2bb
00000390: 2162 54bd 3c3c b43b 7588 e23b 64b0 10bd
000003a0: cbab 48bc 70de 573b 0405 223b f793 fa3c
000003b0: 5349 11bd fed1 0abb ca41 f93a dfe4 763c
000003c0: d8d8 173d ec1f af3c cb71 0fbb cfba 8bbc
000003d0: 4710 b53b e5cb cd3b f949 d5bb ea94 033d
000003e0: b945 023d b984 0b3b 64e8 14bc aef1 0dbb
000003f0: e8d6 e0ba 3c3c ad3c f034 e73a 31ab 3b3d

fc.bias f4 [7]
-0.14208928 0.19960664 0.37344918 -0.22738506 -0.5175892 0.5392318 -0.28064108
00000000: da7f 11be af65 4c3e bb34 bf3e a1d7 68be
00000010: ba80 04bf 180b 0a3f 30b0 8fbe
