simplemodel.pth (torch, 271600 bytes, 8 tensors)

conv1.weight f4 [32, 3, 3, 3]
0	0xbe387500	-0.18013382
1	0xbdbc37c0	-0.09190321
2	0xbe40f158	-0.18842065
3	0x3cd2aa3d	0.025715942
4	0x3c5234b7	0.012829951
5	0xbe3b663d	-0.1830072
6	0xbe3a540e	-0.18196127
7	0xbc9bb770	-0.019008368
8	0x3da6061c	0.08106634
9	0xbdf3f732	-0.11912383
10	0x3e21685a	0.15762463
11	0x3e40c9e4	0.18827015
12	0x3d352a28	0.044229656
13	0x3e2964a8	0.16542304
14	0x3d81009f	0.062989466
15	0x3e15968c	0.1460821
16	0x3d84d3f1	0.06485737
17	0x3d840457	0.0644614
18	0xbdcd2d61	-0.10018421
19	0xbd56170a	-0.052268066
20	0x3e2c802a	0.16845766
21	0xbca249e5	-0.019810626
22	0xbd4cae38	-0.049970835
23	0xbd098b02	-0.033579834
24	0xbd10029c	-0.03515874
25	0xbe106180	-0.14099693
26	0xbe353a69	-0.17698063
27	0xbcba0247	-0.022706164
28	0x3d285c4f	0.041103657
29	0xbda4a4c0	-0.08039236
30	0xbd430416	-0.04761132
31	0xbda2041c	-0.0791094
32	0xbdbafeac	-0.09130606
33	0x3e126e98	0.143
34	0x3e0e0f95	0.13873132
35	0x3dd8c4a9	0.10584385
36	0x3ddf6485	0.109078445
37	0x3e3c5e56	0.18395361
38	0xbd44224d	-0.047884274
39	0x39cdd320	0.00039257947
40	0x3dac0b7d	0.08400629
41	0x3d2d9a88	0.0423837
42	0xbc794c97	-0.015216014
43	0x3dfc6466	0.12323837
44	0x3e4979ed	0.19675417
45	0xbd64617e	-0.05575704
46	0xbdf1d40b	-0.11808022
47	0xbe30d0c6	-0.17267141
48	0xbc393c9a	-0.011305952
49	0xbe25cc08	-0.16191113
50	0x3d95e1c6	0.073184535
51	0x3d895981	0.06706525
52	0xbe304d37	-0.17216955
53	0xbca06a9e	-0.019582089
54	0xbe053f89	-0.13012518
55	0x3d1d1bca	0.03835658
56	0xbc831e8d	-0.016005779
57	0xbdc03f5e	-0.09387086
58	0x3e218f79	0.15777387
59	0x3e3a5bcf	0.18199085
60	0x3c71b1da	0.014751876
61	0x3dfcb876	0.12339871
62	0x3db42272	0.087956324
63	0x3d9b9bf2	0.075981036
64	0xbdd7d1e5	-0.10538081
65	0x3e0268c7	0.12735282
66	0xbddd3fcb	-0.10803183
67	0x3d9f06e0	0.07764983
68	0xbb660cb7	-0.0035102793
69	0xbbbdbe95	-0.0057905414
70	0xbda33f58	-0.07971066
71	0xbe315c51	-0.17320372
72	0xbe0913a8	-0.13386405
73	0xbba51f0a	-0.0050391005
74	0xbc3e1ca8	-0.011603512
75	0x3dd43944	0.10362485
76	0xbd38f66c	-0.04515688
77	0xbe013340	-0.12617207
78	0xbb19b848	-0.0023455787
79	0x3e03a27c	0.12854952
80	0xbe1ba348	-0.15199006
81	0x3e053fc9	0.13012613
82	0xbdb7bc74	-0.089714915
83	0x3c3ab8a6	0.011396563
84	0x3d57b733	0.052664947
85	0xbbbde072	-0.005794578
86	0x3e2c36c5	0.16817768
87	0x3c3d0a9f	0.011538177
88	0x3e066d52	0.1312764
89	0x3df44b6a	0.119284466
90	0x3e042685	0.12905319
91	0xbd824338	-0.06360477
92	0x3e0537ed	0.13009615
93	0xbd8a020a	-0.0673867
94	0xbe2714d5	-0.1631654
95	0x3d9d5f2d	0.07684169
96	0x3d49f210	0.049303114
97	0xbb892b68	-0.0041860826
98	0xbe4b3824	-0.19845635
99	0x3e02c6bf	0.12771128
100	0x3c175ab6	0.009237936
101	0x3dd2131c	0.10257551
102	0x3d8a1fb7	0.067443304
103	0xbd69c4b2	-0.05707235
104	0xbddf83b0	-0.10913789
105	0xbe17ae3e	-0.14812562
106	0x3dd235c8	0.10264164
107	0x3e356799	0.177153
108	0x3db1e80a	0.08686836
109	0xbb1963dd	-0.002340547
110	0xbdb68f25	-0.089140214
111	0x3da60b11	0.081075795
112	0xbe15d0ca	-0.14630428
113	0x3ca99f7c	0.02070593
114	0x3d44999c	0.047998056
115	0xbe0a81ee	-0.13526127
116	0xbd6e093f	-0.058114287
117	0xbde93b68	-0.11388284
118	0x3d4b2c37	0.049602713
119	0x3e23f4d2	0.1601136
120	0x3e4ce686	0.20009813
121	0x3da5dbef	0.0809859
122	0x3e69a13d	0.22815414
123	0xbdaed21a	-0.085361674
124	0x3db5d31b	0.08878156
125	0x3e044119	0.12915458
126	0xbe3f468a	-0.18679252
127	0xbd477a5a	-0.048700668
128	0xbe146ad4	-0.14493877
129	0xbd8dc9dd	-0.06923268
130	0x3e0a6404	0.13514715
131	0xbc81d4cf	-0.015848545
132	0xbe56273b	-0.20913403
133	0xbdc04afd	-0.09389303
134	0xbe196caa	-0.14982858
135	0xbdf467c0	-0.11933851
136	0x3db1e39f	0.086859934
137	0xbd351129	-0.04420582
138	0xbe49485c	-0.19656509
139	0xbb5198d6	-0.0031981966
140	0xbe4462fb	-0.19178383
141	0xbe2cf962	-0.16892007
142	0xbdf79809	-0.12089545
143	0x3c9e2670	0.019305438
144	0xbd001005	-0.031265277
145	0x3e4f0f66	0.20220718
146	0xbb1d9262	-0.002404355
147	0x3e80bfe1	0.25146392
148	0x3e034ed8	0.12823045
149	0x3e126ad4	0.14298564
150	0x3e6d190f	0.2315409
151	0x3d7cffee	0.06176751
152	0x3cf8dfb7	0.030380113
153	0xbe60b81b	-0.2194523
154	0x3e143cc1	0.14476301
155	0xbde83eed	-0.11340127
156	0xbde986a5	-0.114026345
157	0xbe6e04ef	-0.2324407
158	0xbe7b6bfc	-0.24552912
159	0x3e174b3c	0.14774793
160	0xba4076e9	-0.0007341938
161	0x3c783d97	0.015151403
162	0x3da56a20	0.08076882
163	0x3d710c42	0.05884958
164	0xbce99fab	-0.028518518
165	0x3d1d5e94	0.038420275
166	0x3d089a06	0.033350013
167	0xbd8ac6e6	-0.06776218
168	0xbe21d055	-0.15802129
169	0x3dec836e	0.11548506
170	0xbe05cc92	-0.13066319
171	0xbd82393e	-0.06358574
172	0xbe247658	-0.1606077
173	0xbcd3998a	-0.025830049
174	0x3d1c3592	0.038137026
175	0x3e46b64b	0.19405477
176	0x3e0d97fd	0.1382751
177	0x3d1bf788	0.03807786
178	0x3e1538b9	0.14572419
179	0xbdefd24b	-0.11710032
180	0x3e018deb	0.12651794
181	0xbe3dfd15	-0.18553574
182	0xbddb8239	-0.107181974
183	0x3af7ede0	0.0018915497
184	0xbe20124d	-0.15631981
185	0xbe117763	-0.14205699
186	0xbe368c33	-0.1782692
187	0x3e2877ba	0.16451922
188	0x3dca7fa1	0.098876245
189	0x3e49fab6	0.19724545
190	0x3e659618	0.22420537
191	0x3e60b83b	0.21945278
192	0x3d3e845a	0.04651294
193	0x3c7ab1e5	0.015301202
194	0x3e328a30	0.17435527
195	0x3e566242	0.2093592
196	0xbd4dbb6d	-0.05022757
197	0x3e658a06	0.22415933
198	0xbe874263	-0.26417837
199	0x3dc16c24	0.09444454
200	0x3da7ffc8	0.08203083
201	0xbdaa0d31	-0.08303297
202	0xbe0e5cee	-0.13902637
203	0xbe4c5d9a	-0.19957581
204	0xbd335792	-0.043784685
205	0x3d6e3602	0.058156975
206	0x3da7f21b	0.08200475
207	0x3e32ec76	0.17473015
208	0xbe197673	-0.14986591
209	0xbe12bdad	-0.14330168
210	0x3c2ac691	0.0104233185
211	0x3df3425d	0.11877892
212	0x3d8efb0d	0.06981478
213	0xbc0120d0	-0.007881358
214	0x3d3adb6a	0.045619406
215	0xbe3981b7	-0.18115889
216	0xbd0e66d4	-0.034766033
217	0x3d24d0e0	0.04023826
218	0xbdf60160	-0.12011981
219	0x3e0e3c49	0.13890184
220	0xbc78c41d	-0.015183476
221	0x3e259848	0.16171372
222	0x3ded83b3	0.11597385
223	0xbe5402c4	-0.2070418
224	0xbe422a20	-0.18961382
225	0x3d1e99a0	0.038720727
226	0xbdef07f6	-0.1167144
227	0x3e479ddb	0.19493811
228	0x3c0ca001	0.00858307
229	0xbe000ad2	-0.12504128
230	0xbdf0d0dd	-0.117585875
231	0xbdfb5b6f	-0.12273299
232	0x3e365388	0.17805302
233	0x3e102abe	0.14078805
234	0xbdd8ae91	-0.10580171
235	0x3da06ee8	0.07833654
236	0x3daa1441	0.083046444
237	0x3e1e8335	0.15479739
238	0xbd252a70	-0.040323675
239	0x3d8263ef	0.06366717
240	0xbda03987	-0.078234725
241	0x3e1c224d	0.1524746
242	0x3e3fb978	0.18723094
243	0xbdc0ca13	-0.094135426
244	0xbe00bea5	-0.12572725
245	0xbdfd4c17	-0.123680286
246	0x3e42a074	0.1900652
247	0x3d721eda	0.059111454
248	0x3e17ad29	0.14812149
249	0xbdec5b17	-0.115408115
250	0xbe41f2a3	-0.18940215
251	0x3d7d2fa6	0.06181302
252	0x3d8df4ed	0.069314815
253	0x3e3005d8	0.17189729
254	0x3e42d50b	0.19026582
255	0xbe266bd3	-0.16252069

conv1.bias f4 [32]
0	0xbe43b912	-0.19113567
1	0xbde0f8b6	-0.10984938
2	0xbdc61ca5	-0.09673432
3	0xbe49f23b	-0.1972131
4	0x3e2b1cac	0.16710156
5	0x3eea1f14	0.45726836
6	0xbdba0182	-0.09082319
7	0xbeed565c	-0.4635495
8	0xbd27633d	-0.040866125
9	0xbe3bf76a	-0.183561
10	0xbd3cdd66	-0.04610958
11	0xbeac9481	-0.3370705
12	0x3e6c25fb	0.23061363
13	0xbecab6d7	-0.3959262
14	0xbd305aa1	-0.04305518
15	0x3e994c90	0.29941225
16	0xbce4949a	-0.02790289
17	0x3e8f3844	0.27972615
18	0x3deb35a0	0.114848375
19	0x3e86c9a7	0.26325724
20	0x3c301aa8	0.010748543
21	0xbe9729f3	-0.29524192
22	0xbe1f3600	-0.15547943
23	0x3e84b05c	0.25915802
24	0xbe3c52af	-0.18390916
25	0xbdf70950	-0.12062323
26	0xbdbd70d1	-0.09250034
27	0x3e2b25e4	0.16713673
28	0x3e966c55	0.29379526
29	0xbc6842ac	-0.014176052
30	0x3bc42845	0.005986246
31	0xbe400d5d	-0.18755098

conv2.weight f4 [64, 32, 3, 3]
0	0xbcff0768	-0.031131461
1	0x3d16f3bd	0.03685354
2	0xbb71cde0	-0.0036896393
3	0xbc1aef2c	-0.009456437
4	0xbc44b3c2	-0.012005748
5	0xbd44d9dd	-0.048059333
6	0x3d0b4daa	0.034009613
7	0x3d6979d0	0.057000935
8	0xbbbe0ff1	-0.00580024
9	0x3d0e1eeb	0.034697454
10	0xbca744c8	-0.02041854
11	0xbd48a0ec	-0.048981592
12	0x3ceeecbd	0.02916562
13	0x3cca5d42	0.024702672
14	0x3cd6712b	0.02617701
15	0xbd47e45e	-0.048801772
16	0x3d0ac25d	0.033876766
17	0xbcee0c0a	-0.029058475
18	0x3d4004f3	0.04687972
19	0x3ca05501	0.019571783
20	0x3c99201a	0.018692065
21	0xbca44936	-0.020054441
22	0xbcef2d5a	-0.02919643
23	0x3d036d7f	0.032086845
24	0xbd69cf27	-0.05708232
25	0x3be2a8c6	0.006917092
26	0x3cb3537c	0.021890394
27	0xbc6a2c48	-0.014292784
28	0xbd4661ee	-0.048433237
29	0xbb2d6d71	-0.0026462937
30	0x3b6c1aa9	0.0036026633
31	0xbd195438	-0.037433833
32	0x3d462560	0.048375487
33	0xbd04192e	-0.032250576
34	0xbd71687d	-0.05893754
35	0x3d5561e5	0.052095313
36	0x3d2b694e	0.041848473
37	0x3d758ffe	0.059951775
38	0x3d66f691	0.056387488
39	0x3d49e7b1	0.049293224
40	0x3baa89c4	0.005204411
41	0x3c904c07	0.017614378
42	0x3b9ab496	0.0047212346
43	0x3c17fafa	0.009276146
44	0x3d25df5d	0.04049622
45	0x3d3a7c93	0.04552896
46	0x3ccd8297	0.025086684
47	0x3cc400d8	0.023926184
48	0x3b923f04	0.0044630785
49	0x3bf5b300	0.007498145
50	0x3d318df1	0.043348256
51	0xbd4c61e3	-0.04989804
52	0x3d0546b9	0.03253815
53	0xbcf6e1db	-0.030136993
54	0x3d6d0e43	0.05787493
55	0xbc45798f	-0.012052908
56	0xbcb2e46a	-0.021837432
57	0x3d549f18	0.051909536
58	0x3ba3634f	0.0049862037
59	0xbd60f11d	-0.054917444
60	0x3c4f6065	0.01265726
61	0xbc9fb9da	-0.0194978
62	0xbc9e2249	-0.019303458
63	0xbd032d52	-0.032025643
64	0x3d1f7ab9	0.038935397
65	0x3d6cb79c	0.05779229
66	0xbcdc6b74	-0.026906706
67	0xbd47263b	-0.048620444
68	0xbd2902e2	-0.041262515
69	0xbd018a33	-0.031625938
70	0xbbd1652c	-0.0063902345
71	0xbd0fb6cb	-0.035086434
72	0xbc020444	-0.007935587
73	0xbce1fb7b	-0.027585736
74	0x3c02ac03	0.007975581
75	0xbce47440	-0.027887464
76	0x3c9e7cf4	0.019346692
77	0x3ce2c549	0.027681964
78	0x3d5b30c1	0.053513292
79	0x3c6c615e	0.014427511
80	0x3d563878	0.052299947
81	0xbcf73fd3	-0.030181801
82	0x3c28adc2	0.010295333
83	0x3c91ed3a	0.017813314
84	0xbce4ffb0	-0.027953953
85	0x3d278c8e	0.040905528
86	0x3d45a6bc	0.048254713
87	0xbcddcce8	-0.027075246
88	0xbd025170	-0.031815946
89	0xbd24b1f5	-0.040208776
90	0x3cadc5b2	0.021212433
91	0x3d2b4fd8	0.04182419
92	0x3c2274be	0.009915529
93	0xbd544a08	-0.051828414
94	0x3cccad98	0.02498512
95	0xbd1c95a2	-0.03822864
96	0x3d5548e7	0.05207148
97	0xbc95a250	-0.018265873
98	0x3c8ef56c	0.01745101
99	0xbd45033a	-0.04809878
100	0x3d04edb6	0.03245326
101	0x3d1c732e	0.03819578
102	0x3cbf7fa6	0.023376297
103	0x3d2752ba	0.04085038
104	0xbd4a01af	-0.04931801
105	0xbb3d0ef6	-0.0028848029
106	0x3b4be3cd	0.0031111122
107	0x3cad2286	0.021134626
108	0x3d719ae4	0.058985606
109	0xbcd22b4d	-0.025655413
110	0xbceed291	-0.02915314
111	0x3d6bf9ea	0.057611383
112	0x3d3b4c7d	0.04572724
113	0xbd359188	-0.044328243
114	0x3d13ce58	0.036085457
115	0xbc9a04f1	-0.018801184
116	0xbd38b661	-0.045095805
117	0x3d2ba735	0.041907508
118	0xbd2c45be	-0.0420587
119	0x3c7317d7	0.014837227
120	0x3cec3006	0.028831493
121	0xbcfa386c	-0.030544482
122	0xbca6b9d2	-0.020352278
123	0x3d10d51e	0.035359494
124	0x3c25aa61	0.010111422
125	0x3c1f49cb	0.009722183
126	0x39166e30	0.00014346163
127	0xbd069932	-0.032860942
128	0xbbcae8b0	-0.0061922893
129	0x3cb2e205	0.02183629
130	0xbc36478d	-0.0111254575
131	0x3d1e3af4	0.03863044
132	0x3a1240a9	0.0005579093
133	0xbd582f6e	-0.052779607
134	0xbcb613f7	-0.022226317
135	0xbcf304e8	-0.029665425
136	0x3d48d8ee	0.049035005
137	0x3c840ac5	0.016118417
138	0xbc9300f9	-0.0179448
139	0xbc87dc6b	-0.016584596
140	0xbd577982	-0.052606113
141	0x3cb27e10	0.021788627
142	0x3d4b0ace	0.04957085
143	0xbc0edf56	-0.00872024
144	0x3d128b54	0.035777405
145	0xbc977e96	-0.018492978
146	0xbd615c90	-0.055019915
147	0x3c27e20c	0.010246765
148	0xbc0f225d	-0.00873622
149	0x3d45bfd1	0.048278634
150	0x3cece867	0.028919412
151	0xbbf16d6c	-0.0073677804
152	0xbcdf5761	-0.027263345
153	0x3c21c5c2	0.009873809
154	0x3cc3fc66	0.023924064
155	0xbd18fb92	-0.03734929
156	0x3d404a08	0.0469456
157	0xbd529d83	-0.051419746
158	0xbd2ef95c	-0.042718276
159	0xbcdf261f	-0.027239857
160	0x3ba760dd	0.0051079825
161	0xbce5061b	-0.027957013
162	0x3d4389d7	0.047738876
163	0xbcdf054f	-0.027224211
164	0xbd17260a	-0.03690151
165	0xbd640531	-0.055669013
166	0x3c6ece24	0.014575515
167	0x3d0e9f81	0.034820084
168	0x3b6a238a	0.003572675
169	0x3d6f7e18	0.05846986
170	0x3d200120	0.039063573
171	0x3d22b567	0.03972378
172	0x3d08d77a	0.03340862
173	0xbd6c342b	-0.05766694
174	0x3d2923ed	0.041294027
175	0xbce677c2	-0.028133277
176	0x3ada5ea5	0.0016660286
177	0x3d0de51e	0.03464233
178	0x3d2a2971	0.041543428
179	0xbd5b0457	-0.053470936
180	0x3cb1d2a6	0.02170689
181	0x3c45403e	0.012039242
182	0xbd2a6fd8	-0.04161057
183	0xbb8128ad	-0.0039416165
184	0xbc38b3a0	-0.011273295
185	0x3d543b28	0.05181423
186	0x3d291367	0.04127827
187	0x3d205761	0.03914583
188	0x3d03db06	0.0321913
189	0x3c223561	0.009900422
190	0x3d5261b5	0.051362712
191	0xbd5ca34f	-0.05386668
192	0xbcf78e3d	-0.030219192
193	0xbd2d9594	-0.042378977
194	0x3d0ab941	0.03386808
195	0x3bc3a65d	0.00597076
196	0x3c9cb4f5	0.019129256
197	0x3aa0c7d8	0.0012266589
198	0x3cfb76fe	0.030696388
199	0x3d04a6ce	0.03238564
200	0xbd48b384	-0.048999324
201	0x3d6532bf	0.0559566
202	0xbd6753b7	-0.05647632
203	0x3cb0a5cd	0.021563435
204	0xbd4f9bd3	-0.050685715
205	0x3cb8e9a4	0.022572346
206	0x3b489e90	0.0030612089
207	0x3c1589be	0.009127079
208	0xbd5d1735	-0.05397721
209	0xbcee919f	-0.029122172
210	0x3d536eca	0.05161933
211	0xbd5d4018	-0.054016203
212	0xbd10c034	-0.03533955
213	0xbd532aed	-0.05155461
214	0xbd5d98f4	-0.054100946
215	0xbd62ac71	-0.055340234
216	0xbc912604	-0.017718323
217	0xbd6fa701	-0.058508877
218	0xbbc710ea	-0.0060750144
219	0x3c414135	0.011795332
220	0xbd26028b	-0.04052977
221	0x3d4f6555	0.050633747
222	0x3d3022fd	0.043002117
223	0x3ce6a48f	0.02815464
224	0xbd19d911	-0.037560526
225	0x3d5dcf89	0.054153
226	0x3ca0b951	0.019619616
227	0xbb18b57e	-0.0023301537
228	0x3c41a0c1	0.011818112
229	0xbd160e20	-0.036634564
230	0xbc44debb	-0.012015994
231	0x3ba4ee98	0.0050333254
232	0x3cac0028	0.020996168
233	0xbcc7bd00	-0.024382114
234	0xbd032c09	-0.032024417
235	0xbd245d86	-0.040128253
236	0xbd02ec9a	-0.031963922
237	0x3c809768	0.015697196
238	0xbd6ca823	-0.057777535
239	0xbcf6fa0b	-0.030148527
240	0xbc4fd03f	-0.012683927
241	0xbd467ff1	-0.04846186
242	0xbd1388db	-0.036019187
243	0xbc2063eb	-0.009789447
244	0x3c5920f0	0.013252482
245	0xbd251ce2	-0.040310748
246	0xbcf0f0d7	-0.029411716
247	0x3d4e1a6a	0.05031816
248	0x3cefba1b	0.029263547
249	0xbc54b620	-0.012982875
250	0x3d0049e5	0.03132047
251	0x3d64e57d	0.05588292
252	0xbd29e420	-0.041477323
253	0xb9819591	-0.00024716233
254	0xbc15fb27	-0.009154118
255	0x3cd5616a	0.026047427

conv2.bias f4 [64]
0	0xbd4f152e	-0.050557308
1	0x3bf1ace6	0.0073753474
2	0x3c30bafd	0.010786769
3	0xbd15c042	-0.036560304
4	0xbd71fdf9	-0.059080098
5	0xbe2a9c1e	-0.16661116
6	0x3c8881f6	0.016663533
7	0x3ad4b8a3	0.0016229342
8	0xbd251507	-0.040303256
9	0xbd18cb21	-0.037303094
10	0x3b45a95c	0.003016076
11	0xbd3703ad	-0.04468124
12	0xbd275116	-0.040848814
13	0xbe43b9ef	-0.19113897
14	0x3b94e2c0	0.0045436323
15	0xbc896fa8	-0.016776875
16	0x3d90e1fb	0.07074352
17	0xbddf0d4f	-0.1089121
18	0x3ca50404	0.020143516
19	0xbbcea21c	-0.006305946
20	0x3d2504c4	0.040287748
21	0x3d99145c	0.07474586
22	0xbcf45eec	-0.029830419
23	0x3cd466be	0.025927898
24	0x3d7af22a	0.061266102
25	0x3d4a411c	0.0493785
26	0x3c785043	0.015155855
27	0x3c3af8ce	0.011411859
28	0x3d86e2ea	0.06586249
29	0x3cd1bcc1	0.0256027
30	0x3d203548	0.039113313
31	0xbc2e21d7	-0.010628185
32	0xbbc0ee5d	-0.00588779
33	0x3d72e33d	0.059298743
34	0x3daf61b3	0.085635565
35	0xbd096e17	-0.033552255
36	0xbd8cf5f5	-0.0688285
37	0xbd2969fe	-0.041360848
38	0x3cbd8046	0.023132455
39	0xbc72a9d2	-0.014810996
40	0x3d5f69d9	0.054544304
41	0xba7cf641	-0.0009649732
42	0x3d805532	0.0626625
43	0x3dbbfd3e	0.091791615
44	0x3d4f9787	0.050681617
45	0xbbb7a138	-0.0056039356
46	0x3db122d6	0.086492226
47	0x3ca5cfdd	0.020240718
48	0x3d034bf5	0.03205486
49	0xbe020b56	-0.12699637
50	0xbd259a92	-0.040430613
51	0xbb1ec1cb	-0.0024224396
52	0xbd117e28	-0.035520703
53	0xbc865aed	-0.016400779
54	0xbd4b536a	-0.049640097
55	0x3cdbe8e2	0.026844446
56	0xbd0ff600	-0.035146713
57	0xbcb30a60	-0.021855533
58	0x3d126fbb	0.035751086
59	0x3d555317	0.052081194
60	0xba9da6b6	-0.0012027833
61	0x3e2f2852	0.17105225
62	0xbc45e32f	-0.012078091
63	0xbdb0c27c	-0.08630845

conv3.weight f4 [64, 64, 3, 3]
0	0xbcfd868b	-0.030947944
1	0x3cf53aa2	0.029935185
2	0xbcf58894	-0.029972352
3	0xbce817d3	-0.028331673
4	0xbc61db7c	-0.013785239
5	0x3cb90d1e	0.022589263
6	0xbcbf2d76	-0.023337107
7	0xbd0e6b56	-0.034770332
8	0x3c04d8bc	0.008108314
9	0x3ce5ee70	0.028067797
10	0x3cc89a31	0.024487587
11	0xbce7d5e6	-0.028300237
12	0xbcd37f01	-0.025817396
13	0xbd1a9339	-0.03773806
14	0xbc1f07ca	-0.009706447
15	0x3ca2339d	0.019800002
16	0x3ce97fc9	0.028503316
17	0xbcc0dfca	-0.023544211
18	0x3bb6bb47	0.0055765244
19	0xbccaa266	-0.02473564
20	0x3d4d89ea	0.050180353
21	0xbd19c9bd	-0.03754591
22	0x3cb43f68	0.02200289
23	0x3c36a73a	0.011148268
24	0xbcc21898	-0.023693368
25	0xbc5416b5	-0.012944867
26	0x3cbd5ff7	0.023117049
27	0xbc00a510	-0.007851854
28	0x3cf67614	0.0300856
29	0xbd026d5e	-0.031842582
30	0xbccadbe4	-0.024763055
31	0x3d2f2014	0.0427552
32	0x3cdad7e2	0.02671427
33	0xbd27542e	-0.040851764
34	0xbce4a772	-0.027911875
35	0xbb832885	-0.004002633
36	0x3d0d26ae	0.034460716
37	0xbca6e5e3	-0.02037329
38	0x3ce30744	0.027713425
39	0x3bbc9b7a	0.005755839
40	0x3b6be5fb	0.0035995233
41	0x3d1f05fa	0.03882406
42	0x3ce15f80	0.027511358
43	0x3c246e45	0.010036056
44	0xbd18037c	-0.037112698
45	0xbca8e750	-0.02061811
46	0xbc25bf1f	-0.010116368
47	0xbcdb1e30	-0.026747793
48	0x3cab12c8	0.020882979
49	0xbd29f28c	-0.041491076
50	0xbcaaa035	-0.020828346
51	0xbcc599f8	-0.02412127
52	0xbb795725	-0.0038046327
53	0x3c66251c	0.0140469335
54	0x3c8f411d	0.017487103
55	0x3d40bcdd	0.047055114
56	0x3bd7207f	0.006565153
57	0xbc25c01e	-0.010116605
58	0xb955b524	-0.00020380743
59	0xbc2c8a69	-0.010531046
60	0xbbe2908f	-0.0069142054
61	0x3c871039	0.016487228
62	0x3cfcc1b7	0.03085409
63	0xbbf5f9c5	-0.0075065815
64	0xbcf2c65b	-0.029635599
65	0x3caf30d6	0.021385591
66	0xbc8e3170	-0.017357558
67	0x3d2d4401	0.04230118
68	0xbb686229	-0.0035458899
69	0x3cd3853b	0.025820365
70	0x3bf0fa97	0.0073540914
71	0xbb02dc8b	-0.001996788
72	0x3d050dba	0.032483794
73	0x3bd4c1fd	0.006492852
74	0x3ce506be	0.027957316
75	0xbcb30760	-0.021854103
76	0x3cd4f487	0.025995506
77	0x3bc36045	0.005962404
78	0x3c58ecfd	0.013240096
79	0x3cff0c03	0.031133657
80	0x3cf3ebbf	0.029775498
81	0xbb939080	-0.0045033097
82	0xbc0c854d	-0.008576703
83	0x3cac3cfc	0.021025173
84	0x3d155f50	0.03646785
85	0x3d0a3cd9	0.033749435
86	0x3d141c51	0.036159817
87	0x3c757641	0.014981807
88	0x3d0487fb	0.032356244
89	0xbd37413e	-0.044739954
90	0x3abc1b34	0.0014351369
91	0x39088a62	0.00013021522
92	0xbc2d099b	-0.010561372
93	0xbd15d6bf	-0.03658175
94	0x3d20a580	0.039220333
95	0xbc2c2c8e	-0.01050867
96	0xbd15b331	-0.036547843
97	0xbcaa280d	-0.02077105
98	0x3c96ac89	0.018392818
99	0xbd00323a	-0.0312979
100	0xbbfebfae	-0.007774315
101	0x3bdb3483	0.0066896095
102	0xbd0a2669	-0.033728037
103	0xbbef5114	-0.0073033664
104	0xbd230d67	-0.039807703
105	0xbba1e646	-0.004940781
106	0x3c1c211c	0.009529378
107	0xbd297e62	-0.041380294
108	0xbc54c811	-0.012987153
109	0xbd34e56a	-0.0441641
110	0xbc523e6e	-0.012832267
111	0x3c9fbe85	0.019500026
112	0xbd111299	-0.035418127
113	0x3cc0675b	0.023486784
114	0x3c71b075	0.014751543
115	0x3cddc591	0.027071746
116	0x3c52aab8	0.012858085
117	0xbc768189	-0.015045532
118	0x3b087b14	0.0020825313
119	0xbccb6445	-0.024828086
120	0xbb94e4c7	-0.004543874
121	0xbd16ff5b	-0.03686462
122	0xbc8bd31e	-0.017068442
123	0x3b728bc6	0.003700958
124	0xbca119b8	-0.019665584
125	0xbc3a6b13	-0.011378068
126	0x3c9077b0	0.017635196
127	0x3cd5261d	0.02601915
128	0x3c4abca8	0.012374081
129	0x3d23f01c	0.040023908
130	0xbc5910ab	-0.013248603
131	0x3c642ffa	0.013927454
132	0xbd279727	-0.040915634
133	0x3bab1003	0.0052204146
134	0xbccf32ca	-0.025292773
135	0x3c5b7168	0.013393737
136	0xbcda47c7	-0.026645554
137	0x3d5a845e	0.05334889
138	0x3c40c69b	0.011766101
139	0xbd19744b	-0.03746442
140	0x3ceec912	0.029148612
141	0xbd3df699	-0.046377752
142	0x3c8f2e3f	0.017478107
143	0xbd208b47	-0.039195325
144	0xbd0dbf53	-0.03460629
145	0x3c2bd440	0.010487616
146	0xbd19fd22	-0.037594922
147	0xbcb2ceb7	-0.021827085
148	0x3d2452ce	0.04011803
149	0x3d0e6ec2	0.034773596
150	0x3d224c7b	0.03962372
151	0xbb9b1d4e	-0.004733718
152	0xbcbfb749	-0.023402827
153	0x3c6bd4ea	0.014394024
154	0xbcbebcaa	-0.023283321
155	0xbc68a241	-0.014198841
156	0xbcaff5e4	-0.021479554
157	0xbd2f991a	-0.04287062
158	0x3ce2eb67	0.02770014
159	0xbd1af1c6	-0.03782823
160	0xbcb772ed	-0.022393668
161	0xbd1c7340	-0.03819585
162	0xbc9c5179	-0.019081818
163	0x3d645a37	0.055750098
164	0xbc551423	-0.013005289
165	0x3c3c49cb	0.011492203
166	0x3cb68156	0.022278469
167	0x3d20442d	0.039127517
168	0xbb8b407d	-0.004249631
169	0xbb83f790	-0.0040273145
170	0x3cc59c1a	0.024122287
171	0x3cf0d905	0.029400358
172	0xbc76b840	-0.015058577
173	0x3b9dc896	0.0048151715
174	0xbd3252c4	-0.043535963
175	0x3cda459c	0.02664452
176	0x3ca8bd6c	0.020598136
177	0x3c151126	0.009098327
178	0x3c830dc9	0.015997784
179	0x3b847291	0.0040419777
180	0x3c9e2b34	0.01930771
181	0x3d37dde9	0.044889364
182	0x3d0f7322	0.03502191
183	0x3ce9c607	0.02853681
184	0xbccaa0e8	-0.02473493
185	0x3c8d95e9	0.017283397
186	0x3ca60144	0.020264275
187	0xbc9c8191	-0.01910475
188	0x3d2a2820	0.041542172
189	0x3d190f96	0.03736838
190	0x3d269e91	0.040678564
191	0x3cf6e381	0.03013778
192	0xbd156a40	-0.03647828
193	0x3c6734b1	0.014111684
194	0x3d17845f	0.036991473
195	0x3bd4b32f	0.006491087
196	0xbd1b6081	-0.03793383
197	0x3d19c7b5	0.03754397
198	0xbbef8ffa	-0.0073108645
199	0xbd0606ca	-0.03272132
200	0x3d2a56e0	0.041586757
201	0xbd1a75c7	-0.037709977
202	0xbd0f1c1e	-0.034938924
203	0xbcc06313	-0.023484742
204	0xbce37833	-0.027767276
205	0x3ce3d6a0	0.027812302
206	0x3ba4bc18	0.0050273053
207	0x3c8b67bb	0.017017236
208	0x3d01df03	0.03170682
209	0x3c1f5669	0.009725192
210	0xbce631e0	-0.028099954
211	0xbc749a6d	-0.014929396
212	0x3bb17796	0.005415867
213	0xbb93d2c8	-0.004511211
214	0xbd110ba6	-0.0354115
215	0x3c856cad	0.016287172
216	0x3cafbfa4	0.021453686
217	0x3d0024ec	0.03128521
218	0xbbf076c3	-0.0073383763
219	0x3c995fb2	0.018722389
220	0x3cf59bfe	0.02998161
221	0x3cea40b2	0.028595302
222	0xbb0665be	-0.002050742
223	0xbc1174ce	-0.008877946
224	0xbce173c6	-0.027521025
225	0xbc8dd62f	-0.017314045
226	0xbcd4ced0	-0.025977522
227	0xbc04ae0e	-0.0080981385
228	0x3c956c9a	0.018240262
229	0x3bf45c53	0.007457295
230	0x3cee58aa	0.029095013
231	0x3ce16875	0.02751563
232	0xbc3f1a03	-0.0116639165
233	0xbd1543cc	-0.03644161
234	0x3c782642	0.01514584
235	0x3d09f532	0.033681102
236	0xbd08a0ce	-0.03335648
237	0xbcd79574	-0.026316382
238	0x3cf2feb0	0.02966246
239	0xbd1014c6	-0.03517606
240	0xbd487636	-0.04894086
241	0xb8ef415d	-0.00011408583
242	0x3d0a3a97	0.033747282
243	0x3cd8a980	0.026448011
244	0x3a911656	0.0011069279
245	0x3d124539	0.035710547
246	0x3cc27986	0.023739588
247	0xbc69479b	-0.0142382635
248	0x3cbb8b10	0.022893459
249	0xbcbb850b	-0.022890588
250	0x3cf32247	0.02967943
251	0x3d1f4d09	0.038891826
252	0x3cad6559	0.02116649
253	0x3ca4a16b	0.020096501
254	0xbb907ffd	-0.0044097886
255	0xbc928279	-0.01788448

conv3.bias f4 [64]
0	0xbca75710	-0.020427257
1	0xbac76d76	-0.0015215117
2	0x3d204190	0.039125025
3	0x3d7f9fb3	0.06240816
4	0x3beed029	0.007287998
5	0xbd3d203e	-0.046173327
6	0xbca4c113	-0.020111596
7	0xbd0abd18	-0.03387174
8	0x3c3bb0f4	0.011455763
9	0x3d8602d0	0.06543505
10	0x3d5da0df	0.054108497
11	0xbccbc643	-0.024874812
12	0x3b97008b	0.004608219
13	0xbcc4522c	-0.023964964
14	0x3c8eaeaa	0.01741727
15	0x3de263ac	0.11054167
16	0x3d07b31d	0.0331298
17	0x3ab30365	0.0013657628
18	0x3ceffe69	0.029296117
19	0x3ba927d9	0.005162221
20	0xbc88c54b	-0.01669564
21	0xbcceb498	-0.025232598
22	0xbc46d3fa	-0.0121355
23	0x3cb7fa4a	0.022458214
24	0x3c8caf8a	0.017173547
25	0xbd555603	-0.05208398
26	0xbbe0f883	-0.0068655624
27	0x3c720516	0.01477172
28	0x3dff618e	0.12469779
29	0xbc039450	-0.008030966
30	0xbd0f3f56	-0.03497251
31	0x3d0499d4	0.032373264
32	0xbc636f25	-0.013881479
33	0x3cac085f	0.021000085
34	0x3d5b615e	0.053559653
35	0xbbaaecce	-0.0052162176
36	0x3cd72faa	0.026267845
37	0xbda21611	-0.07914365
38	0xbd0e74b7	-0.034779277
39	0x3d830871	0.063980944
40	0x3da662a7	0.08124285
41	0x3cafe6a5	0.021472285
42	0x3b496a2e	0.0030733454
43	0xbc9a53c0	-0.018838763
44	0xbc7bbb4a	-0.015364477
45	0x3ba0fb51	0.0049127718
46	0x3ca5688c	0.020191453
47	0xbc4e394c	-0.012586903
48	0xbd56e561	-0.052464847
49	0x3c769243	0.01504952
50	0xbbe5c2b3	-0.0070117353
51	0x3bec2acd	0.0072072507
52	0xbcaab36a	-0.020837504
53	0x3c16ae1e	0.009196786
54	0x3cb854d6	0.02250139
55	0xbccef8b6	-0.025265079
56	0x3cd91fab	0.026504358
57	0xbd09466a	-0.033514418
58	0x3c5a1751	0.013311223
59	0x3d3e6c1b	0.046489816
60	0x3cd2dcfb	0.025740137
61	0x3cadbfcd	0.021209622
62	0xbd4fde44	-0.05074908
63	0x3dd09603	0.101848625

fc.weight f4 [7, 1536]
0	0xbca3a9f6	-0.019978505
1	0x3c82db6b	0.015973767
2	0xbc32c7f8	-0.010911934
3	0x39800d0e	0.0002442379
4	0xbc27dfd7	-0.010246239
5	0xbc59fcfc	-0.013304945
6	0x3ccb09c8	0.024784938
7	0x3cca73b8	0.024713382
8	0xbc82a3ac	-0.015947185
9	0xbca34900	-0.01993227
10	0x3c66dd85	0.0140909
11	0xbcda8d52	-0.026678715
12	0x3c97c6e2	0.018527452
13	0xbb6d9454	-0.003625174
14	0xbb091c0a	-0.0020921254
15	0xbc2f7221	-0.010708363
16	0x3cbee8cf	0.023304371
17	0x3c2c0be0	0.010500878
18	0xbc363395	-0.011120697
19	0x3c8f2d0e	0.017477538
20	0xbc32812b	-0.010895054
21	0x3c831cb0	0.01600489
22	0xbc6560ae	-0.014000101
23	0x3cb711d6	0.022347372
24	0xbccb3f78	-0.024810538
25	0xbaafd234	-0.0013414086
26	0xb93e9d5f	-0.00018178437
27	0xbcd61027	-0.026130749
28	0xbca66214	-0.02031044
29	0x3c27f9ba	0.010252411
30	0xbc0517cf	-0.008123352
31	0xbb07dd38	-0.0020731222
32	0xbcebfd33	-0.028807258
33	0x3c8e26cb	0.017352482
34	0x3c836974	0.016041495
35	0xbc904e74	-0.017615534
36	0xbb4fac04	-0.0031688223
37	0xbc3bb2eb	-0.011456232
38	0xbd0a0e8d	-0.033705283
39	0xbbc5a9a5	-0.006032186
40	0xbcc7a265	-0.024369428
41	0xbb9425a0	-0.004521087
42	0xbce07344	-0.027398713
43	0xbc9e68ec	-0.01933714
44	0xbca46372	-0.02006695
45	0xbc5a0df6	-0.013308993
46	0xbcb29e03	-0.021803861
47	0xbc62cda6	-0.013842976
48	0xbc7fc68b	-0.015611301
49	0xbca56318	-0.020188853
50	0x3b915f7f	0.004436433
51	0xbc8468c9	-0.016163247
52	0x3cff35f3	0.031153655
53	0x3cb335fc	0.021876328
54	0x3c261d7c	0.010138866
55	0x3a8da058	0.0010805232
56	0xbd095c9f	-0.033535596
57	0x3d0d0fd8	0.034438938
58	0x3d1abe02	0.03777886
59	0x3d119d5d	0.035550464
60	0x3b3ea159	0.002908787
61	0xbc1a6097	-0.009422443
62	0x3c4e2b3f	0.012583553
63	0x3d0dcd8c	0.034619853
64	0x3c8cf6c4	0.01720751
65	0xbb45baca	-0.003017115
66	0xbbf858bf	-0.0075789387
67	0x3c6d25df	0.014474361
68	0xbca02ebe	-0.019553538
69	0x3c559301	0.013035537
70	0x3d34a27f	0.04410028
71	0xbb4c692a	-0.0031190612
72	0x3b319ab3	0.0027100265
73	0xbc86046c	-0.01635953
74	0x3c87755f	0.01653546
75	0xbb2f178e	-0.002671692
76	0xbc44d998	-0.012014769
77	0xbb0429d4	-0.0020166533
78	0x3be4a54d	0.006977713
79	0xbcaa9ecb	-0.020827672
80	0xbcc45c5f	-0.023969827
81	0x3b1e10fa	0.0024119006
82	0xbb011b4b	-0.0019700106
83	0x3cf22553	0.029558813
84	0xbce10bc7	-0.027471436
85	0x3cba51b9	0.022744047
86	0x3c2dd2ef	0.0106093725
87	0xbc26daac	-0.010183971
88	0x3ca9bfbe	0.020721313
89	0x3d069771	0.03285927
90	0x3cc269e2	0.02373213
91	0x3bc2818a	0.0059358524
92	0xbcf59ec9	-0.029982941
93	0x3cf2c568	0.029635146
94	0x3cf294d3	0.02961198
95	0x3cd93b17	0.026517434
96	0x3be94315	0.0071185925
97	0xbc0eba83	-0.00871146
98	0xbc5c6466	-0.013451671
99	0x3c75db74	0.015005935
100	0xbc4b22c3	-0.012398425
101	0xbce5a261	-0.02803153
102	0x3d08e1eb	0.033418577
103	0x3c2cc270	0.010544404
104	0xbcacd5ee	-0.021098103
105	0xbb36f096	-0.0027914396
106	0x3aa36da4	0.0012468589
107	0xbbe6572d	-0.007029435
108	0xbb67be38	-0.0035361182
109	0x3c0ba9fb	0.008524413
110	0xbca8540d	-0.020547891
111	0xbd0490f5	-0.032364804
112	0xbcb878fe	-0.022518631
113	0x3ce2d9df	0.02769178
114	0x3c28098f	0.010256185
115	0x3d146703	0.036231052
116	0xbb119a30	-0.0022217147
117	0xbcc0c1af	-0.023529856
118	0xba8049b8	-0.0009787595
119	0x3c946dda	0.018118788
120	0xbd1e50a1	-0.038651112
121	0xbcf4b256	-0.029870193
122	0x3c8302fd	0.015992636
123	0xbae17e90	-0.0017203856
124	0xbcd5e221	-0.026108803
125	0xbd2323bd	-0.039829005
126	0x3c42a82d	0.011880917
127	0x3bd72ee6	0.00656687
128	0xb83e91e0	-4.5435387e-05
129	0xbc66e7c1	-0.01409334
130	0xb8122148	-3.4840108e-05
131	0xba281be0	-0.0006412845
132	0x3d3e8b4a	0.046519555
133	0x3ceb8ad9	0.028752731
134	0x3c8825b8	0.016619548
135	0xbd1638c9	-0.03667525
136	0xbd176e95	-0.036970694
137	0x3ae08966	0.0017130792
138	0xbb37de17	-0.002805596
139	0x3b15add0	0.0022839196
140	0x3befc002	0.0073165903
141	0xbd2a9ecf	-0.041655358
142	0xbcbe38c0	-0.02322042
143	0xbc99ff48	-0.018798485
144	0x3c136d0b	0.008998166
145	0xb96818d1	-0.00022134489
146	0xbc5f137f	-0.013615488
147	0xbc8cdd10	-0.017195255
148	0xbcc615e4	-0.02418036
149	0x3b8b86f7	0.0042580324
150	0xbcb0d649	-0.021586554
151	0xba958200	-0.0011406541
152	0x3b62b14d	0.0034590543
153	0x3c3e732d	0.01162414
154	0xbc58952f	-0.013219162
155	0xbc053268	-0.008129694
156	0x3c36acdb	0.01114961
157	0x3b8e8d73	0.004350358
158	0xbc84c4d8	-0.016207144
159	0xbc80f199	-0.015740203
160	0x3c67b6ad	0.014142674
161	0xbc8d3dda	-0.017241407
162	0xbc3f3a49	-0.011671611
163	0x3bde4e5b	0.006784243
164	0x3c30bcfa	0.010787243
165	0xbc0f677c	-0.0087527
166	0xba0e2ee1	-0.00054238556
167	0x3b7000cd	0.003662157
168	0xbbdebf57	-0.006797712
169	0x3c064bf8	0.008196823
170	0xba975029	-0.0011544275
171	0x3c47f188	0.012203582
172	0xbb040276	-0.0020143068
173	0xbb6a6c29	-0.0035770035
174	0xbbfec64b	-0.007775103
175	0x3c22acc3	0.009928885
176	0xbc5a6f50	-0.013332203
177	0x3cab1d02	0.020887855
178	0xbc9e998c	-0.019360326
179	0xbcac117c	-0.021004431
180	0x3c8d3971	0.017239304
181	0x3c39ec7c	0.011347886
182	0x3b4a8e82	0.0030907695
183	0xbc1bc3d9	-0.009507143
184	0x3c0f3be3	0.008742305
185	0xbc899003	-0.016792303
186	0xbc8db969	-0.017300325
187	0x3c8e971e	0.017406043
188	0x3c888211	0.016663583
189	0x3b50a5b0	0.0031837039
190	0x3c5e4aa1	0.013567598
191	0xbc19dda7	-0.009391225
192	0x3c64c17f	0.013962149
193	0x3ceeca28	0.02914913
194	0xba01d785	-0.00049530744
195	0xbb69432f	-0.0035593023
196	0xbca442cf	-0.020051388
197	0xbaa9ad91	-0.0012945404
198	0xbca597e0	-0.020214021
199	0xbc87d5e2	-0.01658148
200	0xbbcea454	-0.0063062105
201	0xbcf97e89	-0.030455844
202	0xbb6f5323	-0.003651806
203	0x3bddd72f	0.0067700366
204	0xbc5c8113	-0.013458508
205	0xbcc39297	-0.02387361
206	0x3cbbe806	0.022937786
207	0xbce02b39	-0.02736436
208	0xbc95f633	-0.018305873
209	0xbbaf3b23	-0.005347626
210	0xbca0a815	-0.019611398
211	0xbc97682c	-0.01848229
212	0xb9e2d236	-0.00043262698
213	0x3ce927d0	0.028461367
214	0x3c93561e	0.0179854
215	0x3cd020f7	0.025406344
216	0xbca4581d	-0.020061547
217	0xb898e9ee	-7.2914976e-05
218	0x3c7692cf	0.01504965
219	0x3c83bcc8	0.016081229
220	0x3c166ecb	0.009181689
221	0x3d19539e	0.03743326
222	0x3c72d25f	0.014820664
223	0xba504e85	-0.00079462706
224	0xbcaedd28	-0.02134569
225	0xbc47f66c	-0.012204748
226	0x3bdb23e3	0.0066876276
227	0x3ce17207	0.027520193
228	0xbcb296e6	-0.02180047
229	0x3c9d8727	0.019229485
230	0xbcb6a1d6	-0.022293966
231	0x3bcdf6d9	0.00628553
232	0xbb0a1450	-0.0021069236
233	0xbc071622	-0.008245023
234	0xbc60be39	-0.013717228
235	0x3c27d7f6	0.01024436
236	0x3bc08144	0.0058747847
237	0x3c269ac5	0.010168736
238	0x39576ba1	0.00020544093
239	0xbc950717	-0.018191857
240	0x3cbcb1a4	0.023033924
241	0x3c17a0bf	0.009254633
242	0x3cb10684	0.021609552
243	0xbc1c1a50	-0.009527758
244	0xbc35c541	-0.011094392
245	0xbcbba9f5	-0.02290819
246	0x3c2488ce	0.010042382
247	0x3b0a9688	0.0021146853
248	0x3b908cff	0.0044113393
249	0x3cfabc23	0.030607289
250	0xbcc0c65f	-0.02353209
251	0xbca074bb	-0.019586911
252	0xbc347ffc	-0.011016842
253	0x3b995853	0.0046797185
254	0xbd400996	-0.04688414
255	0x3c96872f	0.018375007

fc.bias f4 [7]
0	0xbd16ccfe	-0.03681659
1	0x3ddad54b	0.10685214
2	0x3e338b7b	0.17533676
3	0xbdc30bb7	-0.09523719
4	0xbe16f869	-0.14743198
5	0x3e83fd13	0.25779018
6	0xbe3c3a50	-0.1838162
